agent1_checkpoint_critic.pth (torch_old, 635887 bytes, 5 tensors)

fc1.weight f4 [512, 52]
0.03267157 0.10159834 -0.048082314 0.04110312 0.0068976083 -0.07410247 0.02592753 0.041613206
0.04920165 0.10455511 0.031529777 0.011088566 0.040471476 -0.03722018 0.03395872 -0.06048968
0.04507224 0.030841844 -0.03367044 -0.08244937 0.063555904 -0.024254201 0.0011806197 -0.03066748
0.036827058 -0.0877697 -0.048752587 -0.063403495 -0.061710246 -0.0860228 -0.033847872 -0.08285829
-0.020310337 -0.09199674 -0.0057490603 -0.08450371 -0.008161667 -0.022817887 -0.049203873 -0.013930724
0.040016335 -0.04723497 0.02251269 0.04493534 -0.008014857 -0.035889383 -0.022107687 0.04871993
-0.035322588 0.026746871 0.055043437 -0.1803298 -0.031659473 0.0017846649 0.008454511 -0.045709617
-0.008191236 -0.05590244 -0.008033038 -0.03939291 -0.02548449 -0.048961323 0.0022611318 0.0067884326
-0.029650146 0.02999465 -0.013200054 8.3068175e-05 -0.0404765 -0.002432113 -0.02606358 -0.014877141
-0.047332164 -0.011452641 -0.010415703 -0.060245838 0.0036186993 -0.076780185 -0.003785823 0.03881453
-0.03736984 -0.012515485 -0.0026701114 0.048477873 0.04622915 -0.0919109 0.004457459 0.008596229
0.034671813 0.019590471 -0.01102149 -0.059279073 0.009426808 -0.055667643 0.020130148 -0.051403254
0.011346152 -0.06217166 -0.01336161 -0.054457422 0.10068142 0.06951761 0.21905808 -0.13014607
0.04261497 -0.051271647 -0.04366733 0.04472186 0.026172401 0.07072763 0.027548613 0.018754607
0.021533616 -0.0014991412 -0.027343126 0.030547539 -0.03367334 0.04853632 -0.027083144 -0.047781937
-0.0011705367 -0.06529463 -0.028891845 -0.0699248 -0.07737937 0.0016240389 0.029430049 -0.024517223
-0.015021033 -0.03317043 0.020257091 0.010434543 -0.046320632 0.026105886 0.028658122 -0.013672299
0.026760943 -0.0137311965 -0.012190354 -0.05503174 0.027956633 0.006488176 0.01802558 0.025120739
0.037196826 0.008911768 -0.0052746935 -0.020173294 0.008461057 0.025254771 0.021886991 0.02273008
0.022534162 -0.060397808 0.100572504 -0.046281885 0.013093715 0.017316557 0.026203217 0.03218812
0.043740906 0.051721144 0.015649986 0.05861327 -0.02998245 -0.056423545 0.02264548 0.034911294
0.003999548 0.004764442 0.028226132 0.03266125 0.04689002 -0.06356296 -0.023752933 -0.036523476
0.010740943 -0.076277226 0.032897085 0.014090361 -0.031864416 -0.04164097 -0.012162259 -0.009745089
0.008270537 0.05933552 0.010840457 -0.051162865 -0.033383466 -0.052454118 0.0013442434 -0.014016447
-0.012772743 0.035752386 -0.017384108 -0.011479356 -0.04248979 -0.04159174 -0.026569624 -0.009111382
0.04709394 -0.06282406 -0.017245637 0.001610721 0.010676213 0.020656766 -0.03409886 -0.13156462
0.0453538 -0.01796374 0.018237567 -0.012143268 -0.045617767 0.024969943 0.008760437 0.0057194605
-0.023699753 -0.0073945588 0.007668115 -0.024271388 -0.05444929 0.036437918 0.006837059 0.04249437
0.028346147 -0.018033732 0.003012169 0.061320316 -0.0567372 0.025524471 0.022184065 -0.0024327836
0.0089579215 0.028166657 -0.029792959 -0.04187491 0.004255106 0.041798044 -0.00297096 -0.024892956
0.025799049 0.021525135 -0.020530924 0.0042173294 0.05639312 0.024314927 -0.020201042 0.030739194
0.021374336 -0.028984508 0.018959861 0.060014337 -0.007071684 0.04674683 -0.016769638 0.0559231
00000000: a0d2 053d ca12 d03d f6f1 44bd bf5b 283d
00000010: 5505 e23b 09c3 97bd f965 d43c 9c72 2a3d
00000020: ab87 493d fd20 d63d 5e25 013d d1ac 353c
00000030: 6bc5 253d 3074 18bd 4c18 0b3d 07c4 77bd
00000040: ab9d 383d 09a8 fc3c 04ea 09bd 37db a8bd
00000050: 9929 823d bfb0 c6bc 06bf 9a3a 5e3a fbbc
00000060: f8d7 163d 9ac0 b3bd cbb0 47bd b1d9 81bd
00000070: e2c3 7cbd b92c b0bd 11a4 0abd 9bb1 a9bd
00000080: dd61 a6bc c968 bcbd 9d62 bcbb 4810 adbd
00000090: 83b8 05bc 94ec babc 008a 49bd b13d 64bc
000000a0: 2be8 233d 7579 41bd 886c b83c 1e0e 383d
000000b0: bf50 03bc bf00 13bd 2e1b b5bc 8d8e 473d
000000c0: 6bae 10bd 411c db3c 3a75 613d 60a8 38be
000000d0: 5dad 01bd 6beb e93a ca84 0a3c 023a 3bbd
000000e0: 8934 06bc f5f9 64bd 019d 03bc 765a 21bd
000000f0: d9c4 d0bc ab8b 48bd 7f2f 143b 8071 de3b
00000100: dde4 f2bc 57b7 f53c 0a45 58bc e334 ae38
00000110: b0ca 25bd 1664 1fbb 4a83 d5bc 41bf 73bc
00000120: 5fdf 41bd dca3 3bbc a0a6 2abc 57c4 76bd
00000130: b327 6d3b ee3e 9dbd 921b 78bb fcfb 1e3d
00000140: 1e11 19bd c00d 4dbc 09fd 2ebb bc90 463d
00000150: c75a 3d3d c83b bcbd e00f 923b 33d7 0c3c
00000160: 0804 0e3d 327c a03c 7b93 34bc 9dce 72bd
00000170: e672 1a3c c103 64bd fbe7 a43c 388c 52bd
00000180: 36e5 393c b6a7 7ebd a7ea 5abc bf0e 5fbd
00000190: 0f32 ce3d 405f 8e3d c350 603e 0345 05be
000001a0: 098d 2e3d 3802 52bd 84dc 32bd 452e 373d
000001b0: 8167 d63c a6d9 903d a1ad e13c 43a3 993c
000001c0: 4467 b03c d57e c4ba b1fe dfbc d53e fa3c
000001d0: 0eed 09bd 05ce 463d 78dd ddbc feb6 43bd
000001e0: b26c 99ba 31b9 85bd 97ae ecbc bc34 8fbd
000001f0: 1379 9ebd b4dd d43a 4917 f13c 58d8 c8bc
00000200: c71a 76bc b8dd 07bd 33f2 a53c a5f5 2a3c
00000210: b4ba 3dbd 03dc d53c 70c4 ea3c c701 60bc
00000220: c439 db3c d0f8 60bc 0dba 47bc f668 61bd
00000230: 4f05 e53c c49a d43b 62aa 933c 02ca cd3c
00000240: b35b 183d aa02 123c 56d7 acbb 7742 a5bc
00000250: 3fa0 0a3c 18e3 ce3c 594c b33c 6f34 ba3c
00000260: 9099 b83c b163 77bd f5f8 cd3d 1392 3dbd
00000270: 0587 563c 74db 8d3c 21a8 d63c b1d7 033d
00000280: aa29 333d 8dd9 533d 6634 803c 7814 703d
00000290: c19d f5bc 601c 67bd 0483 b93c 25ff 0e3d
000002a0: a40e 833b 091f 9c3b 7d3a e73c cec7 053d
000002b0: c00f 403d 4c2d 82bd 8395 c2bc a499 15bd
000002c0: c8fa 2f3c 3c37 9cbd 18bf 063d 42db 663c
000002d0: 4384 02bd b98f 2abd 3644 47bc dea9 1fbc
000002e0: 2581 073c cd09 733d 2c9c 313c 2790 51bd
000002f0: 1abd 08bd 21da 56bd 5331 b03a 3da5 65bc
00000300: c444 51bc 1871 123d 1e69 8ebc e913 3cbc
00000310: c609 2ebd 1a5c 2abd 8aa8 d9bc e847 15bc
00000320: 93e5 403d e7a9 80bd b946 8dbc d41e d33a
00000330: 48eb 2e3c 6138 a93c 3fab 0bbd e0b8 06be
00000340: e8c4 393d b128 93bc f366 953c 8ff4 46bc
00000350: b2d9 3abd c48d cc3c f087 0f3c 506a bb3b
00000360: fc25 c2bc 0e4e f2bb d044 fb3b cad4 c6bc
00000370: 3806 5fbd ed3f 153d 6809 e03b 940e 2e3d
00000380: 2e36 e83c 7abb 93bc cf67 453b 032b 7b3d
00000390: 4465 68bd b218 d13c 5bbb b53c 566f 1fbb
000003a0: 3fc4 123c c3bd e63c 5d10 f4bc 0785 2bbd
000003b0: 6b6e 8b3b 6d34 2b3d 70b4 42bb 50ec cbbc
000003c0: 8758 d33c 7b55 b03c 7830 a8bc 8631 8a3b
000003d0: 79fc 663d 1930 c73c a87c a5bc c3d0 fb3c
000003e0: 3b19 af3c eb70 edbc b651 9b3c 98d1 753d
000003f0: 96b9 e7bb 9b79 3f3d 7b60 89bc 9f0f 653d

fc1.bias f4 [512]
-0.038907167 0.119066395 -0.15033486 0.059268758 -0.0016735098 0.073402226 -0.04646913 -0.026219282
0.11431289 0.100619 -0.085104756 -0.1162872 0.15162632 0.043311547 0.092193365 -0.13648346
0.0635527 -0.11643224 -0.03917941 -0.023704175 -0.08461082 -0.09588299 -0.11341843 -0.018761499
-0.12740065 -0.095412895 -0.08589141 -0.036136035 -0.010462588 -0.12266619 0.105657354 -0.15500721
0.038026847 -0.16332252 -0.055894546 -0.024175912 0.12153763 -0.15703066 -0.09822361 -0.006244737
-0.13836846 0.031450663 0.0022929355 0.03583155 -0.056228198 0.011777352 0.034053206 0.085895374
0.06275716 0.121952035 0.093898945 -0.056134276 0.09996043 0.0067895143 0.045030195 -0.10924805
0.05814837 -0.010112087 -0.123373345 -0.052037377 -0.07211971 -0.070010036 -0.0041411766 -0.1068372
0.0744567 -0.08062045 -0.032329068 0.041683152 0.057069518 -0.14151378 -0.05296514 -0.12856947
-0.12226497 0.05124712 0.06183337 -0.11616894 -0.07054122 0.060449764 0.1317841 0.12016852
0.07926477 -0.12807703 -0.075116694 0.09548014 -0.115640506 -0.09440294 -0.12720287 -0.12310045
0.023586567 -0.05636727 -0.15230887 -0.12778728 0.12408496 0.109809965 0.056118492 0.06841096
-0.094039656 -0.046607636 -0.037907753 0.0055732094 0.010885029 0.027601501 -0.0942786 -0.07646935
0.05702166 -0.14242631 0.015735742 0.12623812 -0.09700893 -0.044784866 -0.026655657 -0.06693053
0.069697954 0.014534663 0.10573834 -0.06889844 0.014612906 0.04593975 -0.091456346 -0.13572465
0.07357734 -0.078993104 -0.065442964 -0.04221346 -0.13617063 0.07813166 -0.020326935 -0.083007485
-0.14588015 0.020916222 -0.039908156 -0.023925085 -0.051051345 0.00850536 -0.04109078 -0.0024514536
0.07753913 0.025704572 -0.10680552 -0.018253895 -0.061277654 -0.005530707 0.059908908 -0.036861297
-0.066331066 -0.107074484 0.051922847 -0.07275498 0.018281192 -0.025046948 -0.13156733 0.063146845
0.09074582 -0.090325505 0.036886238 0.020789193 -0.045613762 -0.050448295 -0.020111078 0.08559852
-0.022390066 -0.15149632 -0.047725912 -0.07769298 -0.020460261 -0.083152555 0.03103979 -0.037914056
-0.1079729 -0.0075853704 -0.099765114 -0.073680356 0.05560877 -0.0010830727 0.08009466 0.04410558
0.06407225 0.10567818 0.107687026 -0.0552298 -0.086602286 0.10929703 0.070206426 0.13993338
0.11249991 0.0790497 0.012474707 -0.018183468 -0.07703775 0.127244 -0.104336046 0.077764995
-0.0033958312 -0.08321351 -0.11762084 0.032206494 -0.032654822 0.08325071 -0.0792768 -0.055010445
0.04159137 0.101473756 -0.117975086 -0.106109016 -0.06823719 0.03240789 0.1310973 0.009208605
0.024146982 0.07068945 -0.12143392 0.11063179 0.114252746 -0.13440579 -0.023043644 0.035997793
-0.082265556 -0.08427454 0.079557166 0.0882882 -0.11012324 0.064909674 -0.08502097 -0.023810485
-0.16984083 -0.15545525 -0.030122679 -0.08654482 -0.07339012 0.045964275 0.07192814 -0.12607713
0.077428825 0.12866701 -0.04365086 0.03441737 -0.039040968 -0.013704876 -0.051004853 0.024922254
0.13048205 -0.05593037 -0.04925449 0.13338117 0.07623777 -0.11759289 0.12375118 -0.057013035
0.039827105 0.0047887913 -0.03106968 -0.10133679 -0.015208013 -0.116923705 -0.015968423 0.07554069
00000000: 1f5d 1fbd 15d9 f33d 62f1 19be ccc3 723d
00000010: ac59 dbba e853 963d 6a56 3ebd d2c9 d6bc
00000020: e01c ea3d 5611 ce3d 674b aebd fc27 eebd
00000030: ee43 1b3e 7367 313d e0cf bc3d 52c2 0bbe
00000040: eb27 823d 0774 eebd 977a 20bd 422f c2bc
00000050: 7048 adbd 4d5e c4bd ec47 e8bd b7b1 99bc
00000060: 5175 02be d667 c3bd d6e7 afbd 6103 14bd
00000070: 466b 2bbc 6938 fbbd e262 d83d 36ba 1ebe
00000080: 0ac2 1b3d 053e 27be aef1 64bd 900c c6bc
00000090: b9e8 f83d a5cc 20be 7629 c9bd a7a0 ccbb
000000a0: 76b0 0dbe 69d2 003d 1345 163b 1ac4 123d
000000b0: 8a4f 66bd cbf5 403c 607b 0b3d eae9 af3d
000000c0: d386 803d fdc1 f93d 174e c03d 0eed 65bd
000000d0: 0eb8 cc3d 937a de3b 9571 383d 71bd dfbd
000000e0: fc2c 6e3d 2bad 25bc 2aab fcbd 2525 55bd
000000f0: 80b3 93bd 6c61 8fbd b5b2 87bb 76cd dabd
00000100: c17c 983d 561c a5bd 7c6b 04bd f4bb 2a3d
00000110: bac1 693d fde8 10be faf1 58bd b7a7 03be
00000120: 0e66 fabd 80e8 513d fd44 7d3d fbe9 edbd
00000130: ea77 90bd 2c9a 773d 69f2 063e ea1a f63d
00000140: 9155 a23d a026 03be c8d6 99bd 178b c33d
00000150: eed4 ecbd 5456 c1bd 7841 02be 171c fcbd
00000160: 9e38 c13c 5ee1 66bd dbf6 1bbe abda 02be
00000170: 4120 fe3d 0ce4 e03d 81dc 653d 0c1b 8c3d
00000180: dd97 c0bd a6e7 3ebd 2945 1bbd 789f b63b
00000190: 1f57 323c 8b1c e23c 2315 c1bd f69b 9cbd
000001a0: 8b8f 693d 34d8 11be 3ee8 803c 9144 013e
000001b0: 9eac c6bd 5670 37bd f75c dabc e012 89bd
000001c0: cdbd 8e3d cc22 6e3c 588d d83d a01a 8dbd
000001d0: f86a 6f3c 522b 3c3d 774d bbbd 67fb 0abe
000001e0: b7af 963d 23c7 a1bd f606 86bd 05e8 2cbd
000001f0: 5070 0bbe 7e03 a03d ac84 a6bc d4ff a9bd
00000200: 9b61 15be 7f58 ab3c bc76 23bd 8afe c3bc
00000210: 371b 51bd 115a 0b3c ce4e 28bd 91a8 20bb
00000220: d6cc 9e3d 6592 d23c dabc dabd 3189 95bc
00000230: 47fe 7abd ef3a b5bb 0b63 753d dffb 16bd
00000240: 95d8 87bd de49 dbbd 0dad 543d 9000 95bd
00000250: 70c2 953c 422f cdbc 96b9 06be 2253 813d
00000260: f2d8 b93d 94fc b8bd 0616 173d 194e aa3c
00000270: 7fd5 3abd dfa2 4ebd fdbf a4bc 474e af3d
00000280: 5f6b b7bc da21 1bbe 3f7c 43bd 7f1d 9fbd
00000290: 479c a7bc e34b aabd 2847 fe3c c54b 1bbd
000002a0: e520 ddbd b38e f8bb a751 ccbd bae5 96bd
000002b0: 06c6 633d e4f5 8dba ab08 a43d 0da8 343d
000002c0: 5038 833d cd6d d83d 048b dc3d a538 62bd
000002d0: 8a5c b1bd 1fd7 df3d 63c8 8f3d b24a 0f3e
000002e0: 5a66 e63d cfe4 a13d b762 4c3c 7ff5 94bc
000002f0: f8c5 9dbd 404c 023e 23ae d5bd 4143 9f3d
00000300: 988c 5ebb d86b aabd 32e3 f0bd f5ea 033d
00000310: 10c1 05bd 597f aa3d e05b a2bd a252 61bd
00000320: b65b 2a3d 79d1 cf3d ec9c f1bd af4f d9bd
00000330: f1bf 8bbd 23be 043d 5f3e 063e b0df 163c
00000340: e4cf c53c a1c5 903d 59b2 f8bd eb92 e23d
00000350: 58fd e93d aca1 09be 06c6 bcbc 6c72 133d
00000360: d87a a8bd 2198 acbd deee a23d 72d0 b43d
00000370: 4b88 e1bd 5def 843d 791f aebd 350e c3bc
00000380: c1ea 2dbe a92f 1fbe d6c3 f6bc 693e b1bd
00000390: 8f4d 96bd 0945 3c3d 104f 933d 5d1a 01be
000003a0: 0193 9e3d 49c1 033e 3fcb 32bd 3af9 0c3d
000003b0: 6ce9 1fbd 6b8a 60bc 77ea 50bd c129 cc3c
000003c0: 169d 053e 3e17 65bd 13bf 49bd 1395 083e
000003d0: 8c22 9c3d 8bd4 f0bd 4271 fd3d 8086 69bd
000003e0: bf21 233d 4beb 9c3b d785 febc aa89 cfbd
000003f0: 082b 79bc b275 efbd 36d0 82bc 14b5 9a3d

fc2.weight f4 [256, 512]
0.029844549 -0.046921548 -0.07305972 -0.052451752 0.06857105 0.043516997 -0.027645685 -0.025248924
-0.0070175687 0.03196866 -0.013613901 -0.003718861 0.018087618 0.07246942 0.002358259 0.011037252
-0.026631074 -0.005382226 0.05937523 -0.03133626 0.03079803 0.0035480019 0.0036891894 0.038434785
-0.063861586 -0.007225491 0.015685277 -0.119546466 0.03380141 -0.03655877 -0.022668902 -0.021314992
0.041552026 0.0019394862 0.032534596 -0.014970081 -0.012052279 -0.18536212 -0.05850467 0.009593528
-0.00115783 -0.015366003 -0.006540418 0.038997583 -0.0072550406 -0.011727762 -0.06732932 0.011577462
0.010487707 -0.058305267 0.013520621 -0.024506235 -0.04264121 -0.06518027 0.01745035 0.04817945
-0.1483178 0.019069726 0.084886 0.010712413 -0.005804526 0.042985804 -0.05376613 -0.024607299
0.018769583 -0.059754986 -0.05044305 -0.029590318 -0.095296375 0.016351053 0.010619817 0.04142968
0.021778865 0.03908049 -0.0013765746 -0.06900503 -0.063136965 -0.052890312 0.0010019079 -0.06690998
-0.022518544 0.044119857 -0.08568635 0.059483673 0.013201558 -0.009650787 0.004399062 0.012886695
-0.018080981 0.069013074 0.026899628 0.029123293 0.052590787 -0.012258678 -0.056696653 -0.047036104
0.043700475 -0.0020892485 -0.076303296 -0.019901043 0.05711422 -0.024778668 0.04189352 0.019569386
-0.068587646 -0.13983132 -0.01203425 -0.026619881 -0.025488807 -0.013010326 -0.036334462 0.027715772
0.02182369 -0.0611891 -0.16738696 -0.011818077 -0.14179069 0.04863364 0.043935306 -0.11918121
0.0017691273 -0.00027759984 -0.03156066 -0.109590344 0.047512494 -0.0430734 0.0024545863 0.04106026
-0.043143038 0.0040661506 -0.026007375 0.031294804 0.040010355 -0.026804104 -0.013251291 0.065310456
0.052036196 -0.054787353 -0.044704903 -0.03588136 -0.009998434 0.0074848025 -0.03603499 -0.077749945
-0.0014389986 0.03287821 0.023456262 -0.035111155 -0.035579134 0.023307962 0.032458626 -0.037897788
0.0120676365 -0.06944082 -0.05226374 0.017556084 0.012948942 0.020544859 -0.0437074 -0.009682068
0.062024355 -0.034601975 0.024371674 0.04119075 -0.04895122 0.023973187 0.013715053 -0.03376489
-0.045472965 -0.0019749117 0.025685744 -0.015546903 -0.04046782 -0.022513032 0.040097695 -0.21357356
0.059993774 0.051483646 0.063307256 -0.08712036 -0.057364892 -0.06817048 -0.04423961 -0.07688362
-0.08366695 -0.042301208 -0.0035966763 0.04522067 -0.045173872 -0.04349071 -0.040709216 -0.024835639
-0.010375184 -0.019420527 -0.022905458 0.04938305 0.07686789 0.0021967716 -0.085597016 -0.1806051
-0.08085308 -0.022390345 0.047975708 0.049217924 -0.0035820361 0.045937236 -0.06010772 0.045048557
0.0022591166 -0.067515604 -0.03570726 0.045507252 0.0031005044 -0.022502135 -0.015757529 0.046253197
-0.038764946 -0.01355375 0.011752727 0.06549975 -0.017557686 0.010040888 -0.006337114 -0.05943331
0.0085592 0.040772464 -0.022746025 -0.16263081 -0.031942762 0.094504885 0.02095841 0.022082599
0.0153201 0.032573108 -0.015217812 -0.014555424 0.01475717 -0.032795988 -0.044898093 0.025026545
0.024608599 0.041695993 0.013090623 0.10953025 0.0029229033 -0.00023762633 0.007101503 0.00075969915
-0.0678459 0.007958084 0.029080797 -0.06266154 -0.05766644 0.027034212 0.022093412 0.018408136
00000000: 8e7c f43c cf30 40bd 56a0 95bd a6d7 56bd
00000010: fb6e 8c3d e13e 323d 3479 e2bc d5d6 cebc
00000020: a2f3 e5bb 92f1 023d d70c 5fbc 22b8 73bb
00000030: 7c2c 943c d96a 943d 058d 1a3b 97d5 343c
00000040: 6929 dabc 625d b0bb 7133 733d 735a 00bd
00000050: 264c fc3c 9885 683b 54c6 713b cb6d 1d3d
00000060: ddc9 82bd d0c3 ecbb 697e 803c c7d4 f4bd
00000070: 5973 0a3d a6be 15bd 22b4 b9bc c79c aebc
00000080: 7532 2a3d 5c36 fe3a ff42 053d 1245 75bc
00000090: ec76 45bc 91cf 3dbe 98a2 6fbd 2c2e 1d3c
000000a0: 54c2 97ba b0c1 7bbc 0151 d6bb eebb 1f3d
000000b0: b1bb edbb cd25 40bc f4e3 89bd 65af 3d3c
000000c0: a2d4 2b3c 81d1 6ebd 9885 5d3c 4dc1 c8bc
000000d0: 8da8 2ebd 3c7d 85bd 09f4 8e3c d157 453d
000000e0: 9fe0 17be 1d38 9c3c b6d8 ad3d 1e83 2f3c
000000f0: e533 bebb e211 303d e039 5cbd 3f95 c9bc
00000100: abc2 993c a5c1 74bd 5f9d 4ebd 6567 f2bc
00000110: bf2a c3bd a5f2 853c befe 2d3c 2bb2 293d
00000120: 9769 b23c dd12 203d 2e6e b4ba 8252 8dbd
00000130: f44d 81bd 83a3 58bd 7352 833a 1908 89bd
00000140: cf78 b8bc 06b7 343d 537c afbd 27a5 733d
00000150: 594b 583c 561e 1ebc 0226 903b b722 533c
00000160: 911e 94bc ba56 8d3d 9c5c dc3c f993 ee3c
00000170: 7069 573d 9fd8 48bc c03a 68bd eea8 40bd
00000180: 45ff 323d c6eb 08bb e744 9cbd 8307 a3bc
00000190: 9af0 693d a2fc cabc 8a98 2b3d fa4f a03c
000001a0: ae77 8cbd f12f 0fbe 4e2b 45bc f011 dabc
000001b0: e7cd d0bc 4329 55bc 72d3 14bd 300c e33c
000001c0: 98c7 b23c 6ca1 7abd 7d67 2bbe 9ca0 41bc
000001d0: 9431 11be 1134 473d 82f5 333d 4715 f4bd
000001e0: 10e2 e73a d28a 91b9 c045 01bd e770 e0bd
000001f0: 769c 423d bc6d 30bd 20dd 203b ce2e 283d
00000200: c1b6 30bd 583d 853b 6b0d d5bc fb2e 003d
00000210: e6e1 233d 4894 dbbc f11b 59bc 7dc1 853d
00000220: e823 553d b468 60bd 7d1c 37bd 55f8 12bd
00000230: 79d0 23bc 1343 f53b 6d99 13bd 5d3b 9fbd
00000240: c89c bcba 4dab 063d 5927 c03c b7d0 0fbd
00000250: 6dbb 11bd 57f0 be3c 56f3 043d b63a 1bbd
00000260: 56b7 453c fd36 8ebd 8112 56bd c7d1 8f3c
00000270: cd27 543c b14d a83c 8806 33bd 89a1 1ebc
00000280: 400d 7e3d cdba 0dbd 1ba7 c73c a2b7 283d
00000290: 1381 48bd 6b63 c43c 1ab5 603c 0e4d 0abd
000002a0: dc41 3abd 856d 01bb e96a d23c 70b8 7ebc
000002b0: 96c1 25bd 406d b8bc 7b3d 243d 07b3 5abe
000002c0: 08bc 753d 84e0 523d 3ca7 813d 296c b2bd
000002d0: 73f7 6abd f79c 8bbd 9834 35bd 2975 9dbd
000002e0: 9459 abbd 0844 2dbd 37b6 6bbb 4f39 393d
000002f0: 3d08 39bd 5123 32bd b5be 26bd 1c74 cbbc
00000300: adfc 29bc cc17 9fbc 3aa4 bbbc e245 4a3d
00000310: ea6c 9d3d b6f7 0f3b 7d4d afbd 8bf0 38be
00000320: 4d96 a5bd f56b b7bc 2d82 443d bc98 493d
00000330: 98c0 6abb af28 3c3d 8333 76bd d684 383d
00000340: b00d 143b 9f45 8abd c741 12bd d065 3a3d
00000350: d531 4b3b 6656 b8bc ef15 81bc fe73 3d3d
00000360: fec7 1ebd 8c10 5ebc 838e 403c bc24 863d
00000370: 23d5 8fbc 8982 243c 91a7 cfbb 5870 73bd
00000380: e33b 0c3c 0701 273d df55 babc b188 26be
00000390: 6ad6 02bd c78b c13d f9b0 ab3c 91e6 b43c
000003a0: 2801 7b3c 616b 053d 2154 79bc e079 6ebc
000003b0: 0fc8 713c 1655 06bd 10e7 37bd 7804 cd3c
000003c0: f997 c93c 6bc9 2a3d 0d7a 563c 6551 e03d
000003d0: 2e8e 3f3b 552b 79b9 bab3 e83b 8c26 473a
000003e0: cbf2 8abd a062 023c da3a ee3c b254 80bd
000003f0: a533 6cbd da76 dd3c 3efd b43c a9cc 963c

fc2.bias f4 [256]
-0.009415961 -0.012941529 -0.06481494 -0.01117478 0.04463825 -0.021711165 -0.028820235 0.0017159249
0.062960014 0.038188763 0.03253097 -0.06308291 -0.024311297 0.034553025 -0.0035221416 0.016503185
0.0426791 -0.008556334 -0.0178256 -0.049316064 0.0151558 0.04385806 -0.043712627 -0.009124204
-0.04124819 -0.029997969 0.030787025 0.026705354 2.0188234e-05 -0.049401417 0.027008848 -0.044099737
0.0077777687 0.041518714 -0.020439232 -0.019869395 0.037276193 -0.039937552 0.03459781 -0.02691239
0.020266125 0.041828353 0.003236527 -0.005425866 -0.0074178004 0.03783775 0.046265513 -0.031902414
-0.018078955 0.0026392695 -0.0005014598 -0.02078532 0.03162402 0.018011328 0.020926343 0.036349736
-0.022678304 -0.028195692 -0.035111934 -0.016054695 -0.030680683 -0.010899004 0.015542261 -0.0017502299
0.021035805 0.026844572 -0.042906128 0.024139399 0.00766456 0.00844671 -0.02725034 0.009264331
0.009465791 0.027556345 0.03598854 0.0121695325 -0.017758198 -0.004638253 -0.020013934 -0.031057814
-0.030242583 0.009622562 -0.025645755 0.05554271 -0.0030015453 0.050631873 0.017190587 0.013526082
0.025129473 0.03111106 0.00022061792 0.014849418 -0.0046211146 -0.06110435 0.03788587 0.006004727
0.02149053 -0.006940126 -0.03963569 0.024249535 -0.006976677 0.016432418 0.030323695 -0.027891008
-0.011733411 -0.03371335 0.023812875 0.0011732101 0.033172153 -0.030021444 0.020518666 -0.011575068
-0.008169182 0.014328359 0.0079409145 -0.004305015 -0.053853493 -0.02863065 -0.016427206 -0.040215127
0.03063578 0.030169519 -0.014909742 0.029749753 -0.006319925 -0.035099395 -0.049325533 0.049810246
0.0006863677 0.047710277 -0.06480333 -0.009832173 0.005591133 0.024862848 0.012152129 0.011430667
-0.03361823 0.01861174 -0.026746478 -0.020904746 0.012437483 -0.025428027 -0.028320549 -0.019769784
0.046604432 -0.053013436 0.012172069 0.026791098 -0.037046794 -0.03783454 -0.014277167 0.033858046
-0.026931217 0.014883356 -0.03346159 0.0032917976 0.015540146 0.011574018 0.020115474 0.027574662
-0.013775687 0.030436762 -0.010632953 0.038788278 -0.023256306 0.0033065258 0.029617187 -0.055313
-0.027899824 -0.0272046 0.0048411964 0.03510302 -0.033824723 -0.029384982 -0.020899398 -0.024055073
0.023041477 -0.03828986 0.04173702 -0.00087945914 -0.058725424 0.011795664 -0.005779442 0.010324908
0.0109851165 -0.0401303 0.027823249 0.02283978 -0.023173563 -0.003798578 0.0093634175 -0.019656233
0.032024942 0.03187686 -0.0252733 -0.051375084 0.043278582 0.00917116 0.008448442 -0.014156788
0.021136299 0.029499061 0.040637746 -0.0065744733 -0.014394032 -0.007655838 0.022062348 0.012038397
0.0018160506 -0.06457252 -0.022569219 -0.03512226 -0.014165519 -0.012916931 0.04798685 0.03040053
0.009160691 0.015619447 -0.031969715 0.0058865827 0.012708519 0.045154937 -0.04889472 0.014573106
0.04052655 0.01090659 0.032159433 -0.017736802 0.04343859 -0.014213599 0.038072094 -0.018464595
-0.06068059 -0.051346846 -0.039714064 -0.043148033 -0.026939264 0.008814653 -0.03243334 -0.042543955
-0.013285595 0.03467177 -0.012029081 0.024959104 -0.03361298 -0.036093645 -0.014311208 -0.024976753
-0.039809663 -0.019871451 -0.036589704 -0.043221623 -0.02921614 -0.049498867 -0.045579944 0.014891361
00000000: 6745 1abc b508 54bc b2bd 84bd 6d16 37bc
00000010: 99d6 363d 9ddb b1bc 6a18 ecbc e3e8 e03a
00000020: 2ef1 803d d26b 1c3d 323f 053d 9d31 81bd
00000030: 7c28 c7bc 7987 0d3d bbd3 66bb b031 873c
00000040: 48d0 2e3d de2f 0cbc fe06 92bc a4ff 49bd
00000050: 0850 783c 82a4 333d 030c 33bd af7d 15bc
00000060: ddf3 28bd 4dbe f5bc 1235 fc3c 30c5 da3c
00000070: e759 a937 2459 4abd a941 dd3c eda1 34bd
00000080: a7dc fe3b 870f 2a3d 2d70 a7bc 24c5 a2bc
00000090: ecae 183d 8f95 23bd 6fb6 0d3d 5f77 dcbc
000000a0: 2505 a63c 3554 2b3d ea1b 543b 77cb b1bb
000000b0: 0511 f3bb c2fb 1a3d e880 3d3d 1bac 02bd
000000c0: 511a 94bc 98f7 2c3b 6674 03ba fa45 aabc
000000d0: 3088 013d 7e8c 933c b96d ab3c 76e3 143d
000000e0: dac7 b9bc a7fa e6bc 88d1 0fbd 2385 83bc
000000f0: 0e56 fbbc bc91 32bc f8a4 7e3c f867 e5ba
00000100: 4853 ac3c 26e9 db3c 56be 2fbd fdbf c53c
00000110: fd26 fb3b 1264 0a3c 1b3c dfbc 6cc9 173c
00000120: 6816 1b3c d8bd e13c b868 133d b862 473c
00000130: a479 91bc 7cfc 97bb 43f4 a3bc f56c febc
00000140: 4bbf f7bc f3a7 1d3c 0c17 d2bc c180 633d
00000150: 93b5 44bb 5e63 4f3d 46d3 8c3c 809c 5d3c
00000160: 53dc cd3c 9fdc fe3c ac55 6739 f94a 733c
00000170: b86c 97bb 8e48 7abd 372e 1b3d 4dc3 c43b
00000180: e80c b03c ff69 e3bb 0959 22bd f6a6 c63c
00000190: 9c9c e4bb 479d 863c 6669 f83c af7b e4bc
000001a0: 7e3d 40bc 0217 0abd 3813 c33c 66c6 993a
000001b0: 86df 073d 88ef f5bc c316 a83c 5ba5 3dbc
000001c0: 08d8 05bc 7ec1 6a3c 9c1a 023c 1511 8dbb
000001d0: 7b95 5cbd d38a eabc 5992 86bc 9eb8 24bd
000001e0: e3f7 fa3c 1126 f73c fe47 74bc c1b5 f33c
000001f0: 6017 cfbb 62c4 0fbd 9209 4abd d405 4c3d
00000200: 5bed 333a da6b 433d 9cb7 84bd 1f17 21bc
00000210: d335 b73b 2cad cb3c b919 473c b147 3b3c
00000220: 45b3 09bd a677 983c 6e1b dbbc 6e40 abbc
00000230: 96c6 4b3c 704e d0bc 7f00 e8bc 3ef4 a1bc
00000240: 4ae4 3e3d 9e24 59bd 5c6d 473c 0179 db3c
00000250: 61be 17bd 64f8 1abd c7ea 69bc bcae 0a3d
00000260: db9e dcbc 52d9 733c 050f 09bd 33bb 573b
00000270: 199c 7e3c f3a0 3d3c 35c9 a43c 42e4 e13c
00000280: 6bb3 61bc 8456 f93c d635 2ebc 75e0 1e3d
00000290: 0284 bebc 4cb2 583b be9f f23c e28f 62bd
000002a0: 2c8e e4bc 2edc debc e6a2 9e3b 2fc8 0f3d
000002b0: cb8b 0abd c6b8 f0bc 3735 abbc 250f c5bc
000002c0: 7bc1 bc3c d4d5 1cbd 70f4 2a3d 818b 66ba
000002d0: 128a 70bd 9a42 413c 7961 bdbb ce29 293c
000002e0: ebfa 333c ab5f 24bd 95ed e33c 7e1a bb3c
000002f0: 7cd6 bdbc 90f1 78bb 0569 193c 1c06 a1bc
00000300: 962c 033d 4f91 023d f409 cfbc ae6e 52bd
00000310: e244 313d a242 163c 566b 0a3c dff1 67bc
00000320: 0826 ad3c 04a8 f13c c473 263d ae6e d7bb
00000330: f2d4 6bbc d3dd fabb 19bc b43c b23c 453c
00000340: 8c08 ee3a 993e 84bd 15e3 b8bc 5cdc 0fbd
00000350: 7e16 68bc 89a1 53bc dc8d 443d 880a f93c
00000360: b916 163c b6e8 7f3c adf2 02bd 3ce4 c03b
00000370: 6437 503c 62f4 383d d445 48bd 09c4 6e3c
00000380: 2bff 253d 8eb1 323c 9cb9 033d c54c 91bc
00000390: aaec 313d 28e0 68bc 7cf1 1b3d 1043 97bc
000003a0: 368c 78bd 1251 52bd 37ab 22bd febb 30bd
000003b0: bbaf dcbc 566b 103c d2d8 04bd 9242 2ebd
000003c0: d3ab 59bc fc03 0e3d 9f15 45bc 0977 cc3c
000003d0: c4ad 09bd eed6 13bd 8f79 6abc 0c9c ccbc
000003e0: 750f 23bd 74c9 a2bc 16df 15bd 2809 31bd
000003f0: b056 efbc 53bf 4abd 09b2 3abd e5fa 733c

fc3.weight f4 [1, 256]
-0.026458018 0.05355508 -0.077108145 -0.021136595 -0.019037437 0.07381737 0.012927264 0.005506012
-0.03204085 -0.01294294 0.024266047 -0.016220603 0.015634554 0.013451325 -0.0347808 0.06119743
-0.013759294 -0.02597599 -0.023551239 0.024220252 -0.05607182 0.017835785 -0.0032750727 -0.11491769
0.036246706 0.011767628 0.024808263 0.012566394 0.013908523 0.0029703283 0.015428662 0.0013368097
0.008581402 0.043274973 -0.052192844 0.009760579 -0.035386473 -0.012121611 -0.036765628 -0.00896129
-0.005302218 0.020137427 0.01746671 -0.038061094 -0.034048654 0.03601825 0.015818205 0.04014849
-0.025830211 0.052028563 -0.0113735255 -0.04366655 0.0018335547 0.009687456 0.07210073 0.010641311
-0.018703802 -0.055878513 0.026673874 -0.04788278 -0.02371229 -0.013716432 0.019039132 0.032581653
-0.03627924 0.080102846 -0.03879636 -0.015447299 0.027667522 -0.03188502 -0.015355274 0.014867546
0.0014197789 -0.057854615 -0.068934694 0.00084192696 0.018225458 -0.03239705 -0.029937597 0.015884558
0.025220532 0.006521033 0.02458754 0.041859984 0.004574849 0.029073233 -0.021934615 -0.05309908
0.071514614 0.012659219 -0.013516689 -0.011334514 0.014145825 -0.043122273 -0.029076874 0.015511328
0.010399446 -0.022507038 -0.010883653 -0.03165247 -0.040656887 0.014282594 0.08536825 0.039621092
0.048520226 0.03939167 0.030045701 -0.0646552 0.0066465354 0.055478994 0.095690586 -0.018034583
0.013277937 0.025260134 0.03511756 0.010261326 -0.048174713 0.053076647 -0.03480778 -0.02589659
-0.017947765 -0.01589216 0.033508144 0.047507953 0.010275816 -0.011190185 -0.09082661 -0.013718105
0.009228616 0.07796395 -0.0662718 -0.0076999795 -0.006795363 0.0006971745 0.023516972 0.015448129
-0.0073842574 0.008167251 -0.024717323 -0.005131938 -0.0735257 -0.06047577 -0.029357312 -0.03521157
0.032168128 0.043919604 0.020041613 -0.041076746 0.012634912 0.029208772 0.008221355 0.0440249
0.020179002 -0.014946748 0.029225579 -0.049498726 -0.03020562 0.012735344 -0.032938953 -0.019797042
0.016362399 0.02297668 0.024780935 -0.059149627 0.059168693 0.02075879 0.015093331 -0.0016773453
0.032458913 -0.0071895304 0.021652948 0.012110124 0.052148357 -0.025336673 -0.02182594 0.042130362
-0.00756809 -0.055847827 0.012680636 -0.05315518 -0.01797635 0.07871411 -0.004167249 -0.062148105
0.01880058 -0.043667205 -0.04020242 0.010796236 -0.006218862 -0.016875576 0.07083079 -0.052622776
0.005179767 -0.007552627 0.010477367 -0.025811588 0.01919355 -0.031625215 0.019250644 0.04365855
0.019601032 -0.020689603 0.041786354 -0.011932084 -0.04532931 -0.036619525 0.07172531 -0.017321883
-0.017960545 -0.031229926 -0.04152753 0.004497836 -0.052014004 -0.037518922 -0.13511057 -0.04019691
0.03746781 -0.014172648 0.059122037 0.026378512 0.0046249502 0.016513662 0.028936015 0.02477169
0.014047621 -0.014780137 0.032286923 0.014562656 0.01025914 0.04518876 0.016047101 -0.03771821
0.022627711 -0.019173196 -0.0017983876 -0.02645126 -0.007588539 0.011490281 -0.047382154 -0.021340879
-0.06202858 -0.019051043 -0.038518038 -0.015699895 0.028570421 0.012206371 0.054576486 -0.017607259
-0.0041879495 -0.11108151 0.020334456 -0.027357861 -0.011157862 -0.014791156 0.03879086 0.018295696
00000000: 7cbe d8bc 925c 5b3d e0ea 9dbd a726 adbc
00000010: 66f4 9bbc 902d 973d e0cc 533c c76b b43b
00000020: 443d 03bd a00e 54bc 97c9 c63c 12e1 84bc
00000030: 0914 803c f262 5c3c 5076 0ebd 28aa 7a3d
00000040: a96e 61bc 99cb d4bc 87ee c0bc 8d69 c63c
00000050: 91ab 65bd 5a1c 923c 9aa2 56bb f759 ebbd
00000060: 6d77 143d 02cd 403c b33a cb3c 47e3 4d3c
00000070: 93e0 633c d7a9 423b 80c8 7c3c e437 af3a
00000080: 0299 0c3c 1941 313d 2ac8 55bd d6ea 1f3c
00000090: 68f1 10bd b999 46bc 8e97 16bd 60d2 12bc
000000a0: 3abe adbb 3ff7 a43c 5916 8f3c f3e5 1bbd
000000b0: 9a76 0bbd df87 133d 2e95 813c be72 243d
000000c0: e199 d3bc e71b 553d 0658 3abc b2db 32bd
000000d0: e353 f03a 23b8 1e3c 8ca9 933d e558 2e3c
000000e0: b738 99bc dee0 64bd 2b83 da3c bc20 44bd
000000f0: 4740 c2bc e3ba 60bc f4f7 9b3c 5774 053d
00000100: 8a99 14bd f60c a43d efe8 1ebd ab16 7dbc
00000110: 00a7 e23c de99 02bd b094 7bbc 0297 733c
00000120: e017 ba3a f6f8 6cbd a22d 8dbd c3b4 5c3a
00000130: 8e4d 953c c5b2 04bd b13f f5bc 5520 823c
00000140: 4a9b ce3c 64ae d53b cf6b c93c 6075 2b3d
00000150: 9de8 953b fd2a ee3c 39b0 b3bc 6c7e 59bd
00000160: 4176 923d 9d68 4f3c 1a75 5dbc 66b4 39bc
00000170: e4c3 673c fba0 30bd a032 eebc 3a23 7e3c
00000180: 7062 2a3c ae60 b8bc 5951 32bc 05a6 01bd
00000190: d687 26bd 8b01 6a3c 8dd5 ae3d ba49 223d
000001a0: 25bd 463d 2959 213d 6722 f63c f269 84bd
000001b0: 2ecb d93b f13d 633d 6df9 c33d 43bd 93bc
000001c0: b48b 593c 57ee ce3c 6ed7 0f3d 1f1f 283c
000001d0: d952 45bd e666 593d 9a92 0ebd 1625 d4bc
000001e0: 3107 93bc 4630 82bc d63f 093d b397 423d
000001f0: e55b 283c 0a57 37bc 4d03 babd e7c1 60bc
00000200: 9f33 173c 90ab 9f3d 82b9 87bd 1c50 fcbb
00000210: a3ab debb 97c2 363a aaa6 c03c 261a 7d3c
00000220: a4f7 f1bb efcf 053c fc7b cabc d129 a8bb
00000230: a494 96bd 71b5 77bd bf7e f0bc 023a 10bd
00000240: bac2 033d 0be5 333d 4f2e a43c 1740 28bd
00000250: a902 4f3c 3c47 ef3c ddb2 063c 7453 343d
00000260: 6f4e a53c 34e3 74bc 7b6a ef3c 2dbf 4abd
00000270: c771 f7bc e7a7 503c ffea 06bd 682d a2bc
00000280: 700a 863c 9739 bc3c 6301 cb3c e146 72bd
00000290: df5a 723d 570e aa3c 054a 773c 5eda dbba
000002a0: a3f3 043d 2796 ebbb 8661 b13c 8b69 463c
000002b0: 8499 553d db8e cfbc 50cc b2bc e390 2c3d
000002c0: befd f7bb b1c0 64bd 71c2 4f3c 3fb9 59bd
000002d0: 2343 93bc dd34 a13d 6b8d 88bb 038f 7ebd
000002e0: ad03 9a3c 62dc 32bd 4bab 24bd b2e2 303c
000002f0: 98c7 cbbb a63e 8abc bc0f 913d fb8a 57bd
00000300: 09bb a93b 077c f7bb 43a9 2b3c d372 d3bc
00000310: cb3b 9d3c 7189 01bd 87b3 9d3c 4fd3 323d
00000320: 5892 a03c 3e7d a9bc 2b28 2b3d ca7e 43bc
00000330: 3aab 39bd 5bfe 15bd b8e4 923d 9fe6 8dbc
00000340: fe21 93bc e7d5 ffbc c518 2abd 9562 933b
00000350: a30c 55bd 71ad 19bd 6d5a 0abe 84a5 24bd
00000360: d977 193d 6534 68bc f329 723d c017 d83c
00000370: e58c 973b a947 873c 390b ed3c 00ee ca3c
00000380: fe27 663c 6328 72bc 4b3f 043d 3598 6e3c
00000390: f415 283c d917 393d 3675 833c 697e 1abd
000003a0: c05d b93c 1b11 9dbc e0b7 ebba 50b0 d8bc
000003b0: 47a9 f8bb bb41 3c3c ca13 42bd 11d3 aebc
000003c0: ae11 7ebd ef10 9cbc 17c5 1dbd 119d 80bc
000003d0: 840c ea3c 3bfd 473c 988b 5f3d 193d 90bc
000003e0: 113b 89bb b47e e3bd 7294 a63c 981d e0bc
000003f0: 77cf 36bc 9b56 72bc 2ae3 1e3d dbe0 953c
