agent1_checkpoint_actor.pth (torch_old, 579565 bytes, 6 tensors)

fc1.weight f4 [512, 24]
00000000: dd0a 79bd be20 193e b329 04bb 9ffc b2bc
00000010: 8e01 00bd faf0 743d 8a13 81bb 624b 163c
00000020: 1274 c9bc d309 063e e3c1 86bd 0627 3fbc
00000030: 97a4 4fbc ff1a 283d 2fcc 29bd e508 3fbd
00000040: a05f 8fbc 6aac 013e e8ee 903c ea6e fdbd
00000050: 6921 053c fab8 5d3d 80c4 eabb 934a 1cbe
00000060: 6521 1dbc 9d4c 213d 5496 84bc 531d abbd
00000070: 7530 29bd 9253 a5bd f371 953c 5935 1abe
00000080: 88dd 60bd 0136 e93a 5301 21bd e96b 9dba
00000090: 21f7 e9ba 9864 d4bd 8e4c a1bc d533 5bbd
000000a0: c24e 96bc 80a1 e1bc 1904 adbd fb1c a9bd
000000b0: 3afd 18bc 8a54 883b b3b3 bebc 7004 bebc
000000c0: 9988 e93d d657 34be f0ef fd3c 8df2 8a3d
000000d0: 6f52 18be 966e 2f3b 39cd 45bc 206f bf3c
000000e0: 9570 8d3d 358e 16be f2ff 29bd d3f6 b93c
000000f0: 25ef 07be a310 dd3c 243b febc cf38 f93c
00000100: f018 523d 74a2 dcbd 29b0 403d f509 85bc
00000110: 5e85 27bd 5f3f 8dbc f3c3 d03b e5a7 bc3c
00000120: 67e3 893d dad3 673c 18db 8d3d dcff 0dbd
00000130: 521e 62bd b2c0 0e3e 3b39 6fbc 5ad0 a4bc
00000140: 444e 1e3d 7c5c 5dbd 9afd ac3c 6938 c1bd
00000150: 4eb4 a9bc 0cf5 1a3e 21aa 36bd 52b5 bcbd
00000160: 30b1 dabc eceb bcbc 8975 123a bd6d 1cbd
00000170: ea21 213d 909d 3f3d d485 fa3c 6e82 ba3c
00000180: 9649 1c3e 1d4c 2a3e 8172 9abc 1f49 6cbd
00000190: 2be5 86bc 41a9 e23c 7545 6ebd e827 d8ba
000001a0: e0cf fd3d 296b 7b3d b423 e9bc 1139 833d
000001b0: 2194 873d 5cea d2bb 4bf5 61bd 1905 01bc
000001c0: 7d5a 77bc c722 113d b942 93bc 0786 abbd
000001d0: 0f53 a23d cfc8 833d ec49 0abd 128f c8bd
000001e0: 403b d93d bd2c 84be 266a 373c 6fdc 823d
000001f0: cb89 b2bc a048 f6bd 2dd5 c5bc 9154 c63c
00000200: 8e1e a03d 9428 59be 1229 cfbb aab1 61bd
00000210: af18 813d ac86 1cbe f3be b7bc 530c 08bd
00000220: 0dc6 babb de78 48be 52b9 fc3b a1b8 693e
00000230: d557 fc3d eb21 18be 4c9b 803c 42f9 6d3e
00000240: b6fa 8c3c 1531 64bd f3fd 3c3d 8b3d 80bd
00000250: aa3c 843d 87eb f33c 87e5 f13c 0a0e 55bd
00000260: 2f1a b83c 662e 97bc f65c 963c 0063 083e
00000270: 67cf 803d f616 003d 1fef ce3c 59e3 de3d
00000280: e4ff d1bc f792 8abc 14ec bf3b 87c8 2dbc
00000290: e9f4 a83c e341 0e3d 67b8 1bbd 7c80 0d3c
000002a0: 9e67 8c3b 8fa0 ef3d fc26 063d c863 03bd
000002b0: ed2a 27bb cf44 0a3e f8d7 d33c 5491 f93c
000002c0: b844 123d 693b c73d b761 10bd 1e0d a0bd
000002d0: 9377 993d 5e4f 243e 9afe 03bd ac17 17bc
000002e0: e4af 833d f9e2 773d 6d94 38bc 43f5 8439
000002f0: 1973 e1b9 ee42 503e d585 28bc 3b68 373c
00000300: 959a 0c3d eb35 d8bc 87b9 c03b ae90 953d
00000310: 82cc a1bc 8c3d 9d3d 482e ba3c ae37 f03d
00000320: ea7d 03bd 4b68 2abd 1f3b 8a3c 48dc af3d
00000330: 8d2d fa3a e9a4 7e3d bf66 bebc 4e6c 7a3d
00000340: 9ccd 883c 105e e0bc 75ad 343d aa8f 78bc
00000350: 03c4 14bc 961a 8e3d 1000 9dba 1112 72bc
00000360: 5fe3 073e 88db 023e 3e54 7bbd a454 14be
00000370: 8446 5fbd 2eca 14be 5ce7 73bd 4eee 22be
00000380: 69d3 e43c 4563 cd3c ecd5 1abd bd7a aabd
00000390: 0aeb 14bd f29c 19be e913 43bd 34a1 6dbd
000003a0: e1f7 b43d 88b9 b83c 8153 593d 8b07 cabc
000003b0: 9489 3bbd 6806 08be 0dc7 1c3c ec40 9abd
000003c0: 7dff a8bc f755 29bd 1b3c 433d 41e5 3bbc
000003d0: e516 c83c cb84 453d 22b8 57bc 1ad2 47bc
000003e0: 96e7 8b3d 6c22 28bd 871c 093d fe58 783d
000003f0: 137b 1fbd d3b8 d03d e310 273c a9cb 7a3d
-0.060801376 0.14953896 -0.0020166456 -0.021848975 -0.031251483 0.059800126 -0.003939097 0.009173246
-0.02459148 0.13089685 -0.0657995 -0.011667019 -0.012673519 0.04104137 -0.04145449 -0.04663934
-0.017501652 0.12663427 0.017692044 -0.12374671 0.008125641 0.054131486 -0.007164538 -0.15262823
-0.009590481 0.039379705 -0.016184963 -0.083552025 -0.041305978 -0.080725804 0.018242812 -0.15059413
-0.05489877 0.0017792584 -0.039307903 -0.0012010309 -0.0017850139 -0.10370749 -0.019689824 -0.053516228
-0.018348102 -0.02754283 -0.08448047 -0.08257481 -0.009337718 0.0041604685 -0.023279047 -0.023195475
0.11403007 -0.17611632 0.0309982 0.06784544 -0.14875196 0.0026768795 -0.012072855 0.023368418
0.06906239 -0.14702685 -0.041503854 0.022700703 -0.1327482 0.026985472 -0.03103406 0.030422596
0.051293314 -0.10773173 0.047043 -0.0162401 -0.040898673 -0.017242132 0.006371015 0.023029277
0.06732827 0.01414963 0.069265544 -0.034667835 -0.055204697 0.13940695 -0.014601047 -0.020118881
0.03864886 -0.054043278 0.02111702 -0.094345875 -0.020715859 0.1513254 -0.04459584 -0.092142716
-0.026695818 -0.023061715 0.0005586972 -0.038190592 0.039338984 0.046781123 0.030581392 0.022767272
0.15262446 0.16630597 -0.018853428 -0.05768692 -0.016466698 0.027668597 -0.058171708 -0.0016491385
0.12393165 0.061381493 -0.028459407 0.06407369 0.0662005 -0.006436629 -0.05516557 -0.0078747505
-0.015097258 0.035433557 -0.017976152 -0.08375173 0.079259984 0.064347856 -0.033761904 -0.097929135
0.10607004 -0.25815383 0.011194741 0.063897006 -0.02179422 -0.12025571 -0.024149502 0.024210246
0.07818328 -0.21206886 -0.0063220346 -0.055101074 0.06303536 -0.15285748 -0.022429919 -0.03321488
-0.005699879 -0.19577357 0.0077125216 0.22824337 0.1232144 -0.14856689 0.015699051 0.23239616
0.017209392 -0.05571087 0.046140622 -0.062617384 0.06456883 0.029775394 0.029528392 -0.05201534
0.022473423 -0.018454742 0.018354874 0.13319016 0.06289559 0.031271897 0.025260506 0.10883207
-0.025634713 -0.016915781 0.005857 -0.0106068915 0.020624595 0.034730803 -0.038017657 0.00863659
0.004284813 0.11700546 0.032752022 -0.03207758 -0.0025507763 0.13502811 0.025859818 0.030464806
0.035710067 0.097281285 -0.035249438 -0.07815002 0.0749351 0.16045901 -0.03222523 -0.009221952
0.06430033 0.060519192 -0.011265856 0.00025359736 -0.000430011 0.20338032 -0.010285814 0.011194284
0.03432711 -0.026392898 0.0058814916 0.07302986 -0.019750837 0.07677755 0.022727147 0.1172937
-0.032102503 -0.041603368 0.016873894 0.08586937 0.0019087062 0.06216899 -0.023242353 0.061138444
0.016699605 -0.027388602 0.044110734 -0.015170971 -0.009079936 0.069386646 -0.0011978168 -0.014774815
0.13270329 0.12779057 -0.061359636 -0.14485413 -0.05451061 -0.1453025 -0.059546813 -0.15911219
0.02793284 0.02507175 -0.037801668 -0.08324192 -0.036356963 -0.15001276 -0.04762641 -0.058015063
0.08836342 0.022549406 0.05305815 -0.0246618 -0.0457855 -0.13283694 0.009568942 -0.07531914
-0.020629639 -0.041341748 0.047664743 -0.011468233 0.02442498 0.048222344 -0.013166459 -0.012196088
0.06831281 -0.041048452 0.03347447 0.060631745 -0.038935732 0.101915024 0.010196897 0.06122938

fc1.bias f4 [512]
00000000: 8495 5ebd 02c8 a23d 5e5c 16bb b999 0cbe
00000010: 297a 9dbd 7fee e33d 1a28 9fbd da17 2d3e
00000020: c229 93bb f4ea 77bd 8856 3cbe 2169 5d3e
00000030: 000c 423e 20fc 7c3e fb06 87bc 2123 d73c
00000040: 4824 07be 9adc c8bd 13bd 7dbe 051c 1e3e
00000050: 719b 7a3e c284 11be a1dd ae3d 30db 62bd
00000060: 163b 633e 1444 4bbd 14e2 a03d 5e7c 2fbd
00000070: fc6c bdbd 6197 27be 7b49 3dbe cbaa 3e3e
00000080: ec14 673e 8ced 293e 6d14 e53d d5a2 3dbe
00000090: 9132 18be b54b a83d 7438 57be 7a9e 2fbc
000000a0: 5f1c 123e 8dce f6bd e897 fc3d 744a 1d3d
000000b0: 6644 8cbc de62 4138 1cca 3b3e cdc5 b4bd
000000c0: cbe5 0f3e 9f7b 533e fdee 41be 73ab 91bd
000000d0: c02e 093c 768c 54bd 2642 e0bd e479 2abc
000000e0: 5f61 8e3d 6d63 d53c ea2b c83d 0397 273d
000000f0: a88d d13d 6a98 1e3d fcfa 9bbd 5655 aa3d
00000100: 1cf0 773e b7cc c63c 3bd8 35be 6ffb d23c
00000110: f028 16be 41c9 b63d 8836 503e fc94 62be
00000120: 9369 6bbd 6822 1f3e 795e 323d e937 4b3e
00000130: 9eee 0ebe 7416 55bc cde8 84bd fd3c e4bd
00000140: 28f5 f93d c545 253e e1fc 863e 2eda 91bd
00000150: a402 503e 6257 a6bd c57c 50be ca51 41bc
00000160: 5eb0 9a3e b222 103e a6cc 3fbe 00d1 f43c
00000170: d2e2 1f3e 5537 a03d 370e 683c 3a06 76bd
00000180: 46e1 213e 8e1b 293e 3592 e13d a0ab 923d
00000190: ee56 4dbd 6f3b d0bd d4da 5d3e 7655 2d3e
000001a0: 6247 dd3c deef f93d f372 9fbd 063e 00be
000001b0: 1065 033e bc97 c43c 97fa 5fbe 413f bdbc
000001c0: 0116 1fbd 885e a4bd d798 79be 1088 11bd
000001d0: cd1d 37be 4e3d ef3d 4282 3cbe 597c 9abd
000001e0: a129 0ebe 5691 29bd e1e7 82be dc26 01bd
000001f0: dee0 fdbd d5dd 213e d8d8 74be 5b28 483e
00000200: 49ec 6f3e 2439 9f3d eb45 cc3b fcf3 e1bd
00000210: 3297 d6bc 4584 85bd 6baa dc3c 280b 253e
00000220: 30c1 25bd 704e 13be 5ffe 6a3d b662 46be
00000230: e367 1fbd 324c f1bd b8d9 e3bd b822 a6bc
00000240: 0a86 d43d 57d9 cf3d 8f3a 053d 1950 5c3e
00000250: 1227 143e 78ed a4ba 134b 783c f4db 97bd
00000260: f40b a63d 10b2 5e3c 688e f73d a377 51be
00000270: ab41 b7bb 8115 0b3e acbb 093e f184 083d
00000280: 4089 c7bd 9f9b b33d 395c 683d 0ebf 24be
00000290: 037b 3cbe d672 a9bc 730b 14be 3e11 733d
000002a0: 61af ac3b 01f3 a8bd d4bd 1a3e 68c4 bd3c
000002b0: 4c34 643d 792d f13d a062 533d b0ee 05bd
000002c0: 1e78 333e 75b4 9ebd c8fd b83d 8f50 493d
000002d0: dc29 20bd 1f5d bf3b 7fd3 dc3b 5dab 94bd
000002e0: a381 1bbe cee3 edbd adae 5f3e a498 1e3e
000002f0: c1fe 46bd 8db4 2d3e 18d6 213e 7cd3 363e
00000300: 03ae ab3d 0bdb ad3d 091c bfbd cbd6 25bc
00000310: 78b5 20be ac77 80be 7c3c 803c c22f 20be
00000320: 0993 753d 3c10 0d3e 0141 063d a22a 07be
00000330: eab6 aa3d d1bd 573e 9da3 133c 2111 42be
00000340: 8be2 64bd 1f68 0f3e 632d f5bd f161 1dbe
00000350: 5656 173e 81a6 023e 2f59 fabc fe22 1f3e
00000360: ee90 53be 38b2 0a3e bcd1 44be a34d 2bbd
00000370: 01ee 5c3e cd6a 59be 0e85 3ebe 62b0 5a3d
00000380: 3e03 1d3e 027a 40bd f757 5cbe bf1c 213e
00000390: eeae 4e3e 1199 2cbe bdb8 e1bd c989 da3d
000003a0: edbf 963a 9a88 0fbe ac42 23bd 08ef ec3d
000003b0: 2e70 2dbc 2a47 f03d d27d 023e 0f5f c53d
000003c0: 89b5 473e 380a c5bd fb9e c23d 27e7 9fbc
000003d0: 9542 c2bd 5693 d4bd 0cc0 bfbd 606c 0fbe
000003e0: 1e48 23bd fabd 483e 4e83 30be b2d8 2cbc
000003f0: 3d45 3bbd 0933 b03b faa3 853d c2fa 93bd
-0.054341808 0.07948305 -0.0022943239 -0.13730516 -0.07689316 0.11129474 -0.07771321 0.1690363
-0.004491062 -0.060526803 -0.18392384 0.21622135 0.1894989 0.24705553 -0.01648282 0.026261868
-0.13197434 -0.098077014 -0.24779157 0.15440376 0.24473359 -0.142108 0.08538366 -0.055384815
0.22190508 -0.04962547 0.07855621 -0.042843215 -0.09249303 -0.1636634 -0.18485062 0.1861984
0.22566575 0.16594523 0.111855365 -0.18519147 -0.1486304 0.08217565 -0.21017629 -0.010718936
0.14268635 -0.12051115 0.12333661 0.038401082 -0.017122459 4.6106863e-05 0.18338817 -0.0882679
0.14052503 0.20652626 -0.18938823 -0.071127795 0.0083729625 -0.051891766 -0.10950117 -0.010405038
0.06952166 0.026048386 0.09774001 0.0409155 0.10232097 0.038719572 -0.07616231 0.08317058
0.24212688 0.024267538 -0.17758267 0.025754659 -0.14664054 0.08925105 0.20333302 -0.22127146
-0.05747373 0.15540469 0.043547127 0.19845547 -0.13958213 -0.0130058415 -0.06489716 -0.11144445
0.12204963 0.16139896 0.26364806 -0.071216926 0.20313507 -0.08122136 -0.20360096 -0.011799285
0.30212682 0.14075735 -0.18730411 0.029884815 0.15613869 0.07823054 0.014163545 -0.060064532
0.15808591 0.16514418 0.11014215 0.07161641 -0.05013173 -0.10167586 0.21665508 0.16927132
0.027011577 0.12203954 -0.07785597 -0.1252366 0.12831521 0.023998134 -0.21872936 -0.02310145
-0.038839344 -0.08025843 -0.2437471 -0.03553015 -0.17882462 0.11681615 -0.18409064 -0.07543249
-0.13883068 -0.04139837 -0.25567535 -0.0315312 -0.12396406 0.15807278 -0.23910844 0.19546644
0.2342998 0.077745706 0.006233921 -0.110328645 -0.026195142 -0.06519369 0.02693673 0.16117537
-0.04046744 -0.1438539 0.057371493 -0.19373593 -0.038917433 -0.11782111 -0.11125511 -0.020280227
0.103771284 0.10148876 0.03252655 0.2151493 0.14468029 -0.0012582978 0.015154618 -0.074149996
0.08107749 0.013592258 0.12087709 -0.20455794 -0.005592545 0.13582422 0.13450497 0.033329908
-0.09742975 0.08769917 0.056728575 -0.16088507 -0.184063 -0.02068464 -0.14457493 0.059342615
0.00526993 -0.08249474 0.15111476 0.023164943 0.055713937 0.11776251 0.051607728 -0.032698333
0.1752629 -0.07749263 0.0903278 0.049149092 -0.03910242 0.0058399583 0.0067390795 -0.072592475
-0.15186171 -0.11615716 0.21843977 0.15487915 -0.048582796 0.16963406 0.15804327 0.17854112
0.083827995 0.08489045 -0.09331519 -0.010122011 -0.15694225 -0.25091302 0.015653841 -0.15643218
0.059954677 0.13775724 0.032776836 -0.13199857 0.08335669 0.21068503 0.009011176 -0.18951847
-0.05588011 0.14004563 -0.119715475 -0.15369393 0.14779028 0.12758829 -0.030560104 0.15540692
-0.20660755 0.13544548 -0.19220632 -0.041822087 0.21575166 -0.21232148 -0.18605444 0.053390868
0.15333268 -0.046991356 -0.21517931 0.15733622 0.20183918 -0.16855265 -0.11021564 0.10670812
0.001150129 -0.14016953 -0.039858505 0.11569029 -0.010585828 0.117323235 0.12743309 0.096372716
0.19502844 -0.0962109 0.09502979 -0.019519402 -0.09485356 -0.103796646 -0.09362802 -0.14006186
-0.0398637 0.1960372 -0.17237589 -0.010549711 -0.045720328 0.0053771776 0.06525417 -0.07225563

fc2.weight f4 [256, 512]
00000000: 7458 52bb cc4b 15bd 9ce9 b63d a754 9a3d
00000010: 723a ec3d d8b3 39bd 2ff4 d6bc 513b 053d
00000020: 9507 8f3c a5a5 84be 6783 c13d 8e73 dc3d
00000030: cd08 b23d 4921 073d 9e04 823c 233a b6bc
00000040: c925 4c3d 9357 d33c bcfc 1f3d 4bb5 a938
00000050: 4c7c de3c 1fcd c43a 44af 4cbd 6f4c 32bd
00000060: 3a29 5a3d 05cb 35be 83e1 bd3d abd1 a2b9
00000070: 4a0c 883c 1772 54bd 2907 4fbd 2c30 e7bc
00000080: 0bf7 8d3d 0059 8f3d b8a8 8f3d abf7 ab3d
00000090: 7334 93be 0771 33bc 4958 c0bd 5f03 d7bd
000000a0: b3cd 893d a8d2 1fbd dbc8 cb3d b062 c43d
000000b0: f369 93bd 6548 973d db2c a73d 90a4 be3d
000000c0: 5f8a 13bd 7b64 99bd 8ec9 8e3d 4130 83bc
000000d0: a790 a4bd 1438 3f3d 41fb b5bb ed5c 773b
000000e0: 2bd2 853d 6583 05bd a9cc 40bd d435 113b
000000f0: 35b9 0e3d d81d 8fbc f972 31bc f18f ed3c
00000100: 331f 0dbb abd6 413d f57d 7a3d 8391 543d
00000110: 57ac 123c 1837 32bd e870 21bd 2a7d 333d
00000120: 6a87 1cbd 16b5 913c d8ae a43d 5203 a13c
00000130: ba79 013d a2f8 203d 5003 813d 447f 80bd
00000140: 4a47 d1bc 1e9f 633c dcb5 063e b20e a43d
00000150: f552 eabb 0343 853c 41e0 6dbe c273 a43d
00000160: c410 13bb bbbd ef3c 989e 883d 5ab9 423c
00000170: bdd0 903d bfbb d33d 4619 78be eb6c 94bd
00000180: 039a 543d bbf6 f33c fe24 32be 1270 10bc
00000190: f875 7bbb 0232 813d 185b 893d 6260 583d
000001a0: cbed 6cbd 96ca fd3c b1ce 103b d150 913d
000001b0: 92b7 8c3c 1a4c d9bb 16ca a33c 7d57 a8bb
000001c0: 6c75 86bd d84f be3d b563 9ebc 4296 113b
000001d0: d74c 1a3d 312a 933d 5bf2 b93c 0df9 56bd
000001e0: c63a 5d3d fc4b 0ebe 2ebd 16bb 8338 913d
000001f0: ed34 86bc 4f49 993c 21d8 083c a6ad 9abb
00000200: c5e2 a7ba 2da1 303b f187 963d afc3 19bd
00000210: ad09 81bd f6e6 5dbe bc52 fe3d 9557 f2bc
00000220: e027 2bbc c22f 813c 13a0 6bbe 518f 1e3d
00000230: 2fd5 763d f2b8 28bd d657 9abd bf57 3d3e
00000240: 123c 50bc 19cb 153d 74ae a2bd 128b 263d
00000250: 82d7 08bd 4a1e dabc b7bf 16bd 7bea 45bd
00000260: 241e fb3d 9726 43bb 4efb 9abc ea64 583b
00000270: 1ce9 f23d 1567 1c38 d243 3a3d 38fa 81bc
00000280: 3c7b c5bd 7446 c0bc 2990 2abd 1bf2 913d
00000290: 72d2 07be d5a4 133b 62e7 90bd 94a5 4c3d
000002a0: e93b a13c 6960 d33c 45c3 aa3b f240 3dbd
000002b0: 4c04 173d d910 873d 513f 013d 41a9 45bc
000002c0: 06ae 2bbd cf76 673e 0228 e5bc 4187 87bd
000002d0: 0a79 193d 9aa4 9e3d 3fea ab3d 4804 5e3d
000002e0: b1ad 50be 746b 673d a51d 783d 7dd9 1bbd
000002f0: 119e bb3d 0403 b43c f160 703d 3245 3a3d
00000300: 2182 e23d 0cf6 46be 4547 12be 41aa 1e3d
00000310: a6d6 013d 7b43 c8bc a33e 1b3d b00a 4bbc
00000320: e722 383c 4402 cb3d 4725 f5bc 98df 16bd
00000330: 39dd 03bd d465 263c 6345 a03d ade0 27bd
00000340: 609a 80bd bded cc3c eb1f 0fbd d626 e7bc
00000350: 2d5f 50bd 7a6f 9cbc 6128 753c cabb cc3b
00000360: 9d1d 8abd 515a 6e3b cd13 b7ba bfa2 ec3c
00000370: 0c13 36bd 134c 05bd c9ea 2d3d a5a0 66bd
00000380: 06d9 a33c 25c9 903d 217c af3c 07b1 103e
00000390: 5a58 a0bc 08ba f6bc ed5e 36be ba14 1bbc
000003a0: 9fef 143d 6828 ffbd 5bf1 68bc 2b37 f3bc
000003b0: b6a0 613c 511d 7fbd fe2d 3abd d55f 7e3d
000003c0: 8c05 183d 8321 3f3d 1006 533d 498f a0bd
000003d0: bff9 943c c023 8abd 8cca f23b 7e96 573d
000003e0: fbf4 54bc 4a17 d83c 1453 c53d 727e 14be
000003f0: 4bbb 86bd cad4 8abc 1523 f8bd 7110 28bd
-0.003209618 -0.03644924 0.08931276 0.075356774 0.11534585 -0.045337528 -0.026239483 0.03252727
0.01745967 -0.25907627 0.09448891 0.10764228 0.08693085 0.032990728 0.015871342 -0.022244519
0.049840722 0.025798595 0.039059386 8.0923164e-05 0.027158879 0.0015014744 -0.049971834 -0.043529924
0.053261973 -0.17753227 0.092715286 -0.00031055263 0.016607422 -0.051866617 -0.050543938 -0.028221212
0.06931885 0.06999397 0.070146024 0.08396848 -0.28750953 -0.010952241 -0.09391839 -0.1049869
0.06728687 -0.039019257 0.099504195 0.09589136 -0.071979426 0.07386855 0.081628524 0.093087316
-0.036020633 -0.07489868 0.06972037 -0.01601422 -0.08035403 0.04668434 -0.0055536334 0.0037744597
0.06534227 -0.03259601 -0.04707018 0.0022157328 0.034844596 -0.017470285 -0.010830634 0.0289993
-0.0021533489 0.047323864 0.06115528 0.051896583 0.008952222 -0.043509573 -0.039414316 0.043820538
-0.03821508 0.017786544 0.08041161 0.019654904 0.031610228 0.039299615 0.0629946 -0.06274274
-0.025546689 0.013892917 0.13155311 0.080106154 -0.0071510025 0.016267305 -0.23230077 0.080298916
-0.0022440413 0.029265275 0.06670874 0.011885012 0.07071064 0.10338544 -0.24228391 -0.07247337
0.05190469 0.029780736 -0.17396924 -0.008815782 -0.0038369875 0.06308366 0.06706828 0.052826293
-0.057843965 0.03098039 0.0022095854 0.07095493 0.017177377 -0.0066313865 0.019993823 -0.0051373825
-0.06565365 0.09292573 -0.019334653 0.0022214805 0.037670936 0.07185782 0.022698572 -0.052483607
0.05401113 -0.13896173 -0.0023000943 0.07090857 -0.016382659 0.018711714 0.00835231 -0.0047204075
-0.0012808671 0.0026951537 0.073501475 -0.037540134 -0.06300674 -0.21670136 0.12418124 -0.029582778
-0.010446519 0.015769843 -0.23010282 0.038710896 0.0602619 -0.041192003 -0.075362846 0.18490504
-0.012709634 0.036570642 -0.079434305 0.04065997 -0.03340865 -0.026625771 -0.036803927 -0.04831932
0.12261608 -0.002977764 -0.01891866 0.0033019134 0.11860868 3.72893e-05 0.045474835 -0.015866384
-0.09642646 -0.023471095 -0.041641388 0.07126256 -0.13263872 0.0022528667 -0.07075383 0.049962595
0.019681888 0.025802808 0.005211266 -0.046204515 0.036869332 0.0659501 0.031554524 -0.012064279
-0.04191401 0.22603916 -0.027973179 -0.066175945 0.037468947 0.07746239 0.08394288 0.0542033
-0.20378758 0.05649896 0.060575146 -0.03804921 0.09161008 0.021974094 0.0586862 0.045476146
0.11059976 -0.19429797 -0.14285 0.038736586 0.031698845 -0.02444624 0.037901532 -0.012392685
0.01123879 0.099125415 -0.029925002 -0.03683433 -0.032193396 0.010156114 0.078257345 -0.040985752
-0.06279445 0.025015706 -0.03494255 -0.02821676 -0.050872017 -0.019096125 0.01496324 0.006247972
-0.067439295 0.003636975 -0.0013967693 0.028886197 -0.04445176 -0.032543253 0.042460237 -0.056305546
0.020000946 0.07069615 0.021421494 0.1413003 -0.01957338 -0.030118003 -0.17809649 -0.009465391
0.036361333 -0.12458879 -0.0142177 -0.029689392 0.013771227 -0.062283818 -0.045454018 0.06210311
0.037114665 0.04666282 0.051519454 -0.078398295 0.018185494 -0.067451 0.0074093994 0.052633755
-0.012997861 0.026378293 0.096349865 -0.1450136 -0.06578692 -0.016947169 -0.12116066 -0.041031305

fc2.bias f4 [256]
00000000: d0d8 a53d c496 573d 0d98 8abd 71e6 16bc
00000010: edb6 9f3d 1847 4dbd b4f3 033c fa95 ec3c
00000020: cf7a ce3d 444f 353d dab3 623d e1cf 6e3d
00000030: a2db 8d3d b22e d03c 69d6 b33d bd58 7db9
00000040: 35e1 ed3b 49d4 f4bc 707f 8c3d bfdf c63c
00000050: a8c8 883d 817b 32bc e5b1 89bd 112a 2f3d
00000060: f7d3 9fbb 38c7 883d ded2 e2bc 01bb 8ebd
00000070: 37cc 6dbd 11c9 26bb c6d2 593c 8d1f 0b3d
00000080: fb95 c73c e712 9d3c dc72 bb3d 9ebe f23d
00000090: 149f cd3d bc50 5d3d 5170 8b3d af60 933d
000000a0: 88fd cd3d 8704 d6bb d637 6d3c 46f9 4cbb
000000b0: 0b8c 8c3d c0ce c23c 9d09 3c3d 2c90 523d
000000c0: 80ec 313d 1621 093c cfd5 c53b e791 3e3c
000000d0: 4848 f5bc 728b 20bc f386 ae3d 8971 1abd
000000e0: e819 65bd 8f78 19bd cb6a 1ebd a13e b03d
000000f0: 273d 47bd 924f d9bc fac4 9cbd d40e 6a3d
00000100: 03ed 073d 3d71 fbbc c314 103d 6fa0 6abc
00000110: fa32 1fbd 15b1 9c3c dd1f a33c b756 ec3d
00000120: 3850 ca3d d9dd 07bd 7609 813d ce23 13bd
00000130: bdb4 b93b e5c4 a33d 40bd 593d 477b eb3b
00000140: 4711 1dbd ca92 08bd 105f 56bd c410 4b3d
00000150: 0933 803d b39b ba3d 45d1 3a3d 2639 cc3d
00000160: 025c fcbc b7a5 b13d afcd 213d e8fc 2a3b
00000170: b311 0a3d a3c9 0a3c cc4b da3d 282f 963c
00000180: f69d 2c3b a7ad 94bc f711 e9bc 7a7d b43c
00000190: e258 aa3d 0c57 8f3d 89fa 05bd 3983 6bbd
000001a0: b61b a03d 7129 8e3d 3612 9a3d 2e46 99bc
000001b0: 61fc 98bc 8a75 ddbc 1e64 c9bc 8826 3e3d
000001c0: 2ee4 943c 131f e13d 8703 c93d a511 b3bc
000001d0: cc62 873d 9f76 18bc 7d98 963d 3428 61bc
000001e0: 2047 a53d 75a3 443d c2f9 13bd 0e8e e83d
000001f0: 71fc c93d c688 153d 01d9 733d 974e 8d3d
00000200: 6615 033d 2d4b 9d3c a453 f53d f8b0 093d
00000210: 02e2 463c 680c 69bc 1983 e03b ddb4 7c3d
00000220: b3d3 9cbd 43c7 663d 6f6d 84bc 9d57 6739
00000230: 5f45 44bc fc2a 713d e896 71bb e228 073d
00000240: af26 9cbc 17bc 013d 9773 a7bd 6039 83bd
00000250: 8c32 b337 cfb1 773d 665b f93c b760 5abb
00000260: 8644 d23b 8370 9f3c c280 8a3c 8dbe 9d3d
00000270: 4351 53bd 973c 38bd d3fe cc3d 9386 d53d
00000280: 6dd7 313d 2aa1 313a 8931 a9bb 98b9 22bc
00000290: 5a02 823d 3345 8a3c 5ce6 b83c 6996 e93c
000002a0: 4f90 0dbd c6c7 89bd c882 133d dec6 e1bc
000002b0: 75b7 97bd 8d58 733d d08d 053d de35 b9bc
000002c0: c010 a33b deff 9e3c 18b8 9d3d c511 0e3e
000002d0: 2634 adbc b6f3 bf3d ca10 833d 1afb 49bd
000002e0: 8773 9bbc 19b8 453d 62f5 9f3d 7c9d f33c
000002f0: 0c33 903d 61c5 e13c 4aff 62bc 70c7 c73c
00000300: ad88 803d 4e05 7b3c 003f cd3c 5e71 273d
00000310: c37a c53c 8e15 de3d 8ace 963d c3e1 69bd
00000320: 39f8 173c 4cd1 fabc 44ef 9b3d 7d40 093d
00000330: 6671 3c3d 6fa1 28bc 87bf fbbc 5d5b d9bc
00000340: 32c5 7c3c 2360 8b3d 9b2d 413d e78c b23d
00000350: 1a45 c93d b8e4 33bc 5175 2b3d c351 3b3d
00000360: f7b9 fbba 0f11 073d f393 81bc baec 2f3d
00000370: a751 4ebb e6c3 bd3d 653f 94bc 9073 b73d
00000380: c3e7 4c3d 3223 c53d 8ac9 03bd 69ba 9cbd
00000390: e1f2 333d b335 bc3d 3dbe 693d c90f f33c
000003a0: b0cc 773d f696 4cbc 8b8c 8b3d 53eb 643d
000003b0: f2b9 c43c b747 773c 3065 8c3d 6f25 773d
000003c0: f405 c53d 5124 553d 5571 1c3d 2ebb 233d
000003d0: 7687 713d 58e8 a83d f4c5 e0bc 5fd4 a13c
000003e0: d495 a53d 065e 243d d31f 9cbd e231 3e3c
000003f0: 7fae 933d a69e a73c 2bef 813d 9b14 f33c
0.08097994 0.052634016 -0.06767283 -0.009210215 0.07798562 -0.05011663 0.008053709 0.028880108
0.10082018 0.044265047 0.0553473 0.058303718 0.06926657 0.025412891 0.0878113 -0.00024161018
0.007259513 -0.029886382 0.06860244 0.024276612 0.06678897 -0.010893703 -0.06723384 0.042764727
-0.004877563 0.06678623 -0.02768844 -0.06969262 -0.058056083 -0.0025449435 0.013294881 0.033965636
0.024363508 0.019174052 0.09152767 0.118527636 0.10040107 0.054032072 0.06808532 0.07196175
0.10058123 -0.0065313014 0.014478644 -0.0031276508 0.068626486 0.023780227 0.045907605 0.051407024
0.043438435 0.008369705 0.006037451 0.0116314655 -0.029941693 -0.009798871 0.08521833 -0.03770593
-0.05593291 -0.03746849 -0.038676064 0.086056955 -0.048642304 -0.0265272 -0.07654758 0.057143047
0.033185016 -0.030693645 0.03517605 -0.014320477 -0.038866974 0.019127408 0.019912655 0.11539977
0.09878582 -0.033170555 0.06300633 -0.035922818 0.0056672976 0.07996539 0.053159 0.0071863267
-0.038346555 -0.033343114 -0.052336752 0.049576536 0.06259734 0.091117285 0.04560973 0.09971838
-0.030805591 0.08674186 0.039502796 0.0026090685 0.033708286 0.0084709255 0.10658988 0.018333033
0.002633927 -0.01814921 -0.02845095 0.022032488 0.08317734 0.06999025 -0.032709632 -0.05749819
0.078177854 0.06941498 0.07523005 -0.018710222 -0.018675031 -0.027033586 -0.024583872 0.046423465
0.01817521 0.10992255 0.09815126 -0.021859 0.06610641 -0.009305625 0.073533036 -0.013742495
0.08070207 0.048007447 -0.03612686 0.1135522 0.098626025 0.03650739 0.059533123 0.068997554
0.03200283 0.019200886 0.11978844 0.033616036 0.012138845 -0.014224149 0.0068515656 0.061695922
-0.07657566 0.056342375 -0.016165463 0.00022062515 -0.01197943 0.058878884 -0.0036863629 0.032997973
-0.019061415 0.031673517 -0.08176344 -0.06407428 2.1362e-05 0.060472306 0.03043909 -0.0033321807
0.00641686 0.01946283 0.0169071 0.0770236 -0.05159117 -0.044979658 0.10009541 0.104260586
0.043418337 0.00067760295 -0.0051633758 -0.009931944 0.06348105 0.0168787 0.022570781 0.028514104
-0.03456145 -0.06727557 0.036013395 -0.027560648 -0.074080385 0.05941062 0.032605946 -0.022608694
0.004976362 0.019409116 0.07701129 0.13873966 -0.02114303 0.09372656 0.06399687 -0.049311735
-0.018975986 0.048271272 0.07810475 0.02973818 0.070409864 0.027559938 -0.013854811 0.024387091
0.06276069 0.015321089 0.025054455 0.0408796 0.024106389 0.10843955 0.07363613 -0.05710007
0.0092754895 -0.030617379 0.07613996 0.033508766 0.046006583 -0.010292395 -0.030730976 -0.026532823
0.015427874 0.06805446 0.047162633 0.08718281 0.09827633 -0.010979824 0.04185993 0.04573227
-0.0019205202 0.032975253 -0.015817618 0.04295037 -0.0031481774 0.0926588 -0.018096635 0.08957589
0.050025713 0.096258536 -0.032174625 -0.076527424 0.0439328 0.0918993 0.05706619 0.029670613
0.06049794 -0.012487164 0.06813916 0.055888485 0.024014447 0.015092782 0.068552375 0.060338434
0.09620276 0.052036587 0.03819402 0.03997343 0.058967076 0.08247441 -0.027438141 0.019754587
0.08085218 0.04012873 -0.076232575 0.011608573 0.07211017 0.020461392 0.06344446 0.029672911

fc3.weight f4 [2, 256]
00000000: 16c1 3bbd e8b2 dcbd 24b3 2c3d 6c5f acbd
00000010: 65b3 70bd 6a6f a73d adc0 6d3d aba2 3d3d
00000020: d192 0ebe 023c fbbd badd 8abe db88 03be
00000030: 01b1 a8be abb6 b33d 356e cabd 3ead 9dbd
00000040: a192 903a fe41 b53b f2a5 88bd 7518 973d
00000050: 06df 3bbe a9e0 8abd 55f8 a73d 45f8 aabb
00000060: fb57 27be 5c39 ddbd 0ead d6bd 413a f03d
00000070: 9b20 3e3e 16dd c93c 301a ddbd 7fc9 9d3d
00000080: 763f 96bd 702e 5b3d 8b93 96bd 00af 26be
00000090: 38aa a2bd 07c3 e5bd cc6f 37be a3d3 47bd
000000a0: 1aef 293c b6ff 9abd 3be0 babc 441e 6bbe
000000b0: 331d a5bc 9cda b63d fc48 11be 2977 07be
000000c0: 4fea 393a a67c a03b 0957 30bd db84 82bd
000000d0: 65aa 5cbb 43f7 38be 383b 21be af5e 82bc
000000e0: ecc5 4a3c 9795 41bc 95b7 a2bd 013a ddbd
000000f0: f967 873d 6bb4 d93d d42b 9c3d a002 a3be
00000100: be8b bebc 56d9 c43d 19d0 1abe 6713 043e
00000110: cab6 f83d 845b a1bd 95f7 003d 49fc 0ebd
00000120: 26f7 61be b3c4 b33d 6008 5cbe 120b 343d
00000130: 35dd 40be 65ac 82bd 0b48 efbd 7968 113d
00000140: a5bb 9c3d b7b1 d2bd 6d0b 933d e1b7 bebd
00000150: a823 7d3d f9d2 02be 1c5b 68bd 3470 183d
00000160: d240 813d 5f26 17be 20f2 fcbd f38d a7bd
00000170: 62ce a1bd 41bc 2ebd c966 bfbd ec8e 43bd
00000180: ef0c 8a3d 8d5c 953d 76cf aa3d 236a 39be
00000190: 5b32 11be 8c3d 01bc 7864 803c 719f 3bbd
000001a0: eb5d 25be 83ec c33b d7f1 6a3d 16f8 93bd
000001b0: 3cb1 b23d 0559 ba3d 3422 69bd 7767 55bd
000001c0: e5f5 3abe 90c4 05be aaff abbd 6dd2 a73d
000001d0: 0a42 20be 1856 3abe ef19 ecbc cd61 133d
000001e0: a58b 22be c1fd 46be c88e 373d 3335 09bd
000001f0: 84bb 11be 5b11 e43c 0ed3 74be 8d44 c1bb
00000200: 33bf c0bc 9779 ebbd d5b8 c3bd cbc2 20bb
00000210: 49de 14be 7664 613e a8dd b8bd 3854 adbd
00000220: d930 acbb 6c08 603c 977d 9a3d b7b6 05be
00000230: 4fe4 38be 3c79 75bd 07ab 2cbd 48ee 21be
00000240: c621 90bd c2ac 82bd b90d 353d 1d55 b93d
00000250: 100b 2a3d 0ee5 36bd 7f4f 5fbd bebf edbd
00000260: 667a bebd 9d54 ac3d af94 21bc aba6 f1bd
00000270: c594 6fbd 4742 d03d 5438 0bbe 6224 8bbe
00000280: 2848 1ebd da8e a33c efe5 9c3d f7c6 b33d
00000290: bdbf e3bd fc37 a63d 2479 7b3d 295a e4bd
000002a0: 1784 853d 9b42 ba3c bfd8 223d c12f d83d
000002b0: 48d8 c33d 4de5 8dbd 541b c13d 6348 873d
000002c0: 5789 febd 821f 67be 4653 0dbe 402c 07bf
000002d0: 268d 0bbd e1db babd 14de 03bd bf04 9b3d
000002e0: 0d53 11bd 8ad6 56be 6271 10be 078a c8bd
000002f0: 2912 85be 1f4d 1abe 63e1 aa3d b7cd a3be
00000300: 2b07 eabd b7a7 f9bd 4857 32be 0f6a ad3d
00000310: 4b14 b73d dddc f5bc e959 01be 8d19 09bd
00000320: d62f c9bd 2b4b c73c 68c6 21be cfeb d0bd
00000330: b535 05bd 3a3b 943d 147c 193c 2f75 923d
00000340: a1fa 3abe ff60 93be 6ca8 33be 4dce dabd
00000350: f1d7 54be 6fa4 a7bc 2327 43be 8656 21be
00000360: 7d96 8e3d 1d5c f2bd e8fa be3d d69a 863e
00000370: 6f7c d6bd 56d5 7fbd 1e40 ac3d 2af9 d1bd
00000380: 5b76 a0bd 7240 d9bd 5019 9b3d 6608 af3d
00000390: c522 083d 444d 0fbd bc1b 2fbe bd41 e5bd
000003a0: 5b0a 99be 6cb7 3fbe fd6f 9ebc 81a1 1cbd
000003b0: 28d7 15be 788a e9bd 6b06 dcbd 6afd a0bd
000003c0: fd14 08be adc2 58be 2d9f d2bd 5485 3abd
000003d0: ec42 89bd b5d3 8bbe cb6e 7a3d 03a1 10be
000003e0: 90eb 90be 1cb8 b7bd 12c1 a73d 4e89 2fbe
000003f0: 6210 d1bd aafe 973d e822 c8be d275 babd
-0.045838438 -0.10776311 0.04216303 -0.08416638 -0.058764834 0.081755474 0.058045078 0.04629771
-0.13923194 -0.12267305 -0.2712229 -0.12845175 -0.32947543 0.087750755 -0.098843016 -0.07699059
0.0011030027 0.0055315485 -0.066722766 0.07377712 -0.18346795 -0.06781132 0.082016625 -0.0052175843
-0.16342156 -0.10801956 -0.10482226 0.11729861 0.18567125 0.024641555 -0.107960105 0.07704448
-0.07336323 0.053511083 -0.0735236 -0.16277695 -0.07942623 -0.11218839 -0.17913741 -0.048785817
0.010371948 -0.07568304 -0.022812 -0.22960764 -0.020155525 0.08928415 -0.14187998 -0.1322905
0.00070921046 0.0048976718 -0.043051753 -0.063729964 -0.00336709 -0.18063073 -0.15745246 -0.01591429
0.01237629 -0.01181545 -0.07945172 -0.10802079 0.06611628 0.10630115 0.07625547 -0.3183794
-0.023259994 0.09611766 -0.15118445 0.12898026 0.12144239 -0.07878783 0.031486113 -0.034908567
-0.22066936 0.08777752 -0.2148757 0.04395587 -0.18834384 -0.06380538 -0.11683663 0.035500024
0.07652978 -0.10287803 0.07179914 -0.09312416 0.061801583 -0.12775792 -0.056727514 0.03721638
0.063111916 -0.14760731 -0.12350869 -0.081813715 -0.079006925 -0.04266 -0.093457766 -0.047743723
0.06740748 0.07293043 0.08340351 -0.18106894 -0.14179365 -0.007888209 0.015672907 -0.045806352
-0.16149108 0.005979122 0.057359543 -0.07225053 0.08725211 0.090990104 -0.056917384 -0.052100625
-0.18257864 -0.13063264 -0.083983734 0.081944324 -0.15650192 -0.18196905 -0.02882096 0.035981942
-0.15873583 -0.19432737 0.0448139 -0.033498 -0.14231688 0.027840307 -0.23908636 -0.0058980645
-0.02352867 -0.11497801 -0.09556738 -0.0024530168 -0.1453792 0.22010979 -0.090266526 -0.08463329
-0.0052548465 0.013673883 0.075434856 -0.13057981 -0.18055843 -0.05993007 -0.042155292 -0.15813553
-0.07037692 -0.06380607 0.04420254 0.09049437 0.041514456 -0.044652037 -0.054519173 -0.116088375
-0.093006894 0.08414576 -0.009862109 -0.117993675 -0.058491487 0.101688914 -0.13595706 -0.27176195
-0.038643032 0.019965578 0.07661044 0.08778184 -0.111205555 0.08116147 0.061394826 -0.11150009
0.06519335 0.022736838 0.039757486 0.10555983 0.09562737 -0.06928501 0.094290406 0.066056035
-0.12428539 -0.22570613 -0.13801298 -0.52801895 -0.034070157 -0.0912397 -0.032194212 0.075692646
-0.035479594 -0.20980278 -0.14105752 -0.097919516 -0.25990418 -0.15068482 0.0834377 -0.31992885
-0.114271484 -0.12190192 -0.17416108 0.08467495 0.089394175 -0.030012542 -0.12631954 -0.033471633
-0.09823577 0.024327835 -0.15798342 -0.10201227 -0.032521922 0.07237859 0.009367961 0.07151257
-0.1825967 -0.2878494 -0.17544717 -0.1068388 -0.207855 -0.02046415 -0.19057898 -0.15755662
0.06962297 -0.118339755 0.093252 0.26290005 -0.104729526 -0.062459312 0.08410667 -0.102526024
-0.078350745 -0.10607995 0.07573187 0.08546524 0.033236284 -0.034985796 -0.17100424 -0.11194179
-0.29890713 -0.18722314 -0.01934051 -0.03823996 -0.14632857 -0.11403364 -0.10743412 -0.07860835
-0.13289256 -0.21168013 -0.102842666 -0.045537308 -0.067022175 -0.27309957 0.061140817 -0.14123921
-0.2830472 -0.08970663 0.08191122 -0.17142221 -0.10208203 0.0742162 -0.3908913 -0.09104504

fc3.bias f4 [2]
00000000: 1c7c fc3b c951 c63c
0.0077052247 0.02420892
