agent2_checkpoint_critic.pth (torch_old, 635891 bytes, 5 tensors)

fc1.weight f4 [512, 52]
00000000: 0ae9 2c3c da4c ed3c cbcb afbc 5802 9b3d
00000010: 7615 16bd bb29 85bc 483f 573d c40d 9c3d
00000020: c7aa f53c d716 8b3d 4174 fc3c 7557 c03d
00000030: 0330 213c c3fc 03bd 802d 083d 6cff b63c
00000040: 7341 023d 6086 1f3a b628 c5bc b40e 9fbd
00000050: 5e01 1d3d 4202 86bd e9ad 303c b008 d4bc
00000060: 656a 593c 2003 41bd c0f0 dabc 8ac5 5d3d
00000070: 9bdb 94bc efcf e6bc 30b1 41bc d514 0e3d
00000080: dd50 d8bc 111a 45bd c814 233c febf 3ebd
00000090: 7217 b83c 1bfe 91bc ad38 09bd d6a2 c43c
000000a0: d5d2 c93c a393 9cbc 1c63 e83c e7fa 2c3d
000000b0: 8ffb 8c3c 73d6 9dbd 7f24 85bc fe7a 3c3d
000000c0: 6eb6 5e3d b476 f33d b855 1c3e d9ff cabd
000000d0: 122f dbbc 2a6d 433c 8a43 7b3b fc3e e0bb
000000e0: f006 12bd 4be6 8fbd a050 4fbc b223 0aba
000000f0: e9f6 9dbb 6203 f1bc 5fda 0d3c 1391 803c
00000100: 9bf0 00bd f63e 893c c3ec debb 8b45 133c
00000110: d211 b6bc f955 2e3d 8939 0bbd 6e8a 513d
00000120: 1b43 c6bc 6f04 0b3c 1243 96bc d1ab bd3b
00000130: 99ec 03bd 048e 83bc e9ba b5ba 8356 7b3c
00000140: f25d 22bc 942b dcbc f1f8 8db9 fed5 cc3c
00000150: ec11 ce3c 9f23 64bc 5465 573c 355e 283d
00000160: 2682 153d 180b d03b 51d6 18bb d24c dbbc
00000170: 5d28 d4bb ac1e 813c 3e7b 673c 731a 4ebd
00000180: 5b11 41bc 42fd 2cbd c89f 9ebc 0e9d 5abd
00000190: 686f 05be c62f fa3d 8ac3 2bbe eee1 26bd
000001a0: c4bc 413d f674 163d 8d0e 4abd a017 c03c
000001b0: ca41 183d b274 923d c449 b33c 480b 25bb
000001c0: 614e d43c f9f9 a33d dbd7 a6bc 8bf7 1e3d
000001d0: 7386 c4bc 1fe9 493d a2b6 a4bc d3de 21bd
000001e0: 932d e6ba 437d 8c3c a6fa efbc b638 b7bd
000001f0: 2b3c 90bd 4536 5a3b 71ca ed3c 3f73 34bd
00000200: 1bd0 fbbc 13af 99bd 4b51 713c 2250 ff3b
00000210: 4bc8 6abd d148 dc3c 647a bd3c 16a7 85bc
00000220: b150 4e3c 74c7 43bd 506b 84bc 3efb 89bc
00000230: 48b2 953c 4a6f ed3b 8937 663c 49a8 813d
00000240: 97a0 6d3c 9676 e6bc 71df 6fbb 66b0 eabb
00000250: 84b4 c53a d0db dc3c 9186 c03c 9965 123d
00000260: d5e4 253e 400c 62bc 46cb 15be 2ede 813c
00000270: 12b8 393d 7cea dbbc ea02 a53c 7d84 d1ba
00000280: 9ea3 103c 8bd6 d43b e91d 1d3c 8562 cb3c
00000290: f15c dcbb 166e e2bd b417 b73c 6ad9 463d
000002a0: 56ae 53bc 155f a9bb 7ccf e43c fea1 3d3d
000002b0: cbdc 8d3d 55c1 dbbd 2b04 dcbc 2ad2 50bd
000002c0: 9405 583d df61 533b 1e0f f43c 3823 c1b9
000002d0: 5ea5 e6ba 39df a2bc 1baf 7abb 4454 1f3d
000002e0: 8ee1 303d 042b 673c 631a 9d3c 381e 25bb
000002f0: 1cbc 21bc 38f9 21bd d033 29bc ca3a 02bc
00000300: 7de2 873b a281 d33c 9905 eebc ac52 b1bb
00000310: 13fd 04bd f5ca 3ebd 670d 11bd 80c0 c9bc
00000320: e2ef a63b a9a2 883c 52b9 d5bc 1dd4 63bc
00000330: 59a6 f3bd 2903 623d 24b9 96bd 65c3 08be
00000340: 552c 5c3d 500e 343c f5e8 d83c 1a3a c4bb
00000350: 87e3 a4bd a69b a83c d245 8b3c 558d 423c
00000360: 2456 c0bc 3cc3 833c 85af 3d3b ea45 5cbd
00000370: 1ccd 82bd bc8e 063d 9b37 073b 50cd 543c
00000380: 60d8 ab3c bca9 063c a238 4e3b ed31 043e
00000390: ae5c 30bd 2b1b cd3b 1cd5 b63c e7d2 853d
000003a0: b3fb a7bb 26ef 683d 4980 d1bc 92cf 88bc
000003b0: 4c5b 203d d53b 193d c99e a33a 7f87 9339
000003c0: cece 963c 6230 363d 1f53 96bc 75b4 60bc
000003d0: 34c8 863d 4fcd a93c 4f9f 93bc fbd4 513c
000003e0: d56d 373c a7b9 c8bc f342 893c d814 923c
000003f0: 90ff a9bc 5021 e13c 786f 9bbc f121 613c
0.010553608 0.02896731 -0.02145948 0.075688064 -0.03664156 -0.01625525 0.052550584 0.07619813
0.02998866 0.06791466 0.030817153 0.09391681 0.009838107 -0.032223474 0.033246517 0.022338592
0.0318007 0.0006085392 -0.024067264 -0.07766476 0.038331382 -0.065433994 0.010783651 -0.025883049
0.013269995 -0.04712212 -0.026726127 0.054143466 -0.018171122 -0.028175322 -0.01182203 0.034687836
-0.026405746 -0.048120562 0.009953685 -0.046569817 0.022472117 -0.017821362 -0.033501316 0.024003427
0.024636665 -0.019113367 0.028367572 0.042231467 0.017209796 -0.077069186 -0.016252754 0.046015732
0.054373197 0.11887875 0.15267074 -0.0991208 -0.026755843 0.011927882 0.0038339817 -0.006843446
-0.035651147 -0.07026347 -0.0126535 -0.0005269601 -0.0048206937 -0.029420558 0.008658021 0.015694177
-0.03147946 0.016753655 -0.0068031265 0.008988748 -0.022225294 0.04256246 -0.033990417 0.051157407
-0.02420192 0.008484944 -0.018342528 0.0057883044 -0.03220806 -0.01605893 -0.0013864908 0.01534045
-0.009910094 -0.026876248 -0.00027079092 0.025004383 0.02515503 -0.013924508 0.013146717 0.041105468
0.036501072 0.0063489787 -0.0023321102 -0.02677003 -0.0064745382 0.015761696 0.014128504 -0.050318193
-0.011783923 -0.042233713 -0.019363299 -0.053372435 -0.1303078 0.12216143 -0.16773811 -0.040742807
0.04729916 0.036732636 -0.049330283 0.023448765 0.037172116 0.07151164 0.02188576 -0.0025183726
0.02591628 0.08006663 -0.0203666 0.038810294 -0.023989892 0.049294587 -0.020106617 -0.039519142
-0.001756119 0.017149573 -0.029294323 -0.08946364 -0.07042726 0.0033296507 0.029027196 -0.04405522
-0.03073888 -0.07504096 0.014728854 0.007791535 -0.05731992 0.02689019 0.02312965 -0.016315024
0.0125924805 -0.047797635 -0.016164452 -0.016843434 0.018273488 0.0072459327 0.014051327 0.06330926
0.01450362 -0.028132718 -0.0036601687 -0.0071621416 0.0015083705 0.026960284 0.023501666 0.035741422
0.16200574 -0.013796866 -0.14628324 0.015853014 0.04534156 -0.02684521 0.020142991 -0.0015984919
0.008828072 0.006495302 0.009589651 0.024827251 -0.0067249467 -0.110561535 0.02235017 0.048547186
-0.012919983 -0.0051688054 0.027930968 0.046297066 0.069268785 -0.107302345 -0.026857456 -0.050981678
0.052739695 0.003225438 0.029792365 -0.0003683807 -0.0017596891 -0.019881831 -0.0038251344 0.03889872
0.043183856 0.014109377 0.019177621 -0.0025195014 -0.009871509 -0.039544314 -0.0103272945 -0.007948587
0.0041468726 0.02581865 -0.029055404 -0.0054114666 -0.032467913 -0.046580274 -0.035413172 -0.024627924
0.005094514 0.016679125 -0.026089344 -0.013905552 -0.11896963 0.055178795 -0.073595315 -0.13355787
0.053753216 0.0109897405 0.02647827 -0.0059883716 -0.0805121 0.020582031 0.017001066 0.0118745165
-0.023478575 0.016084306 0.002894373 -0.053777613 -0.06386778 0.032850966 0.0020632509 0.012988403
0.0209772 0.008219179 0.0031466861 0.1290967 -0.043057136 0.006259342 0.022318415 0.06534367
-0.0051264404 0.056868695 -0.025573866 -0.01670054 0.039149567 0.037410576 0.0012483235 0.00028138977
0.018409159 0.044479735 -0.018350182 -0.013714899 0.065811545 0.020727782 -0.0180203 0.012807126
0.01119562 -0.024502588 0.016755557 0.017832205 -0.020751745 0.027481705 -0.01897405 0.013741002

fc1.bias f4 [512]
00000000: 2337 93bc 8b17 703d 0f21 1cbe 054a 773d
00000010: 69a2 bb3b 08af b13d b8e5 86bd 3f6d 4bbd
00000020: c073 d53d eaa7 0b3e 1161 c9bd b345 06be
00000030: 6522 013e f4d1 363d 3ea8 cd3d 5d0c 0ebe
00000040: e2c4 2f3d 3898 0dbe ed9b 16bd abc0 20bd
00000050: a238 84bd 4c7d bdbd 61da fbbd a671 94bc
00000060: c344 fbbd 61b5 b7bd c896 e3bd 9b42 58bd
00000070: fd45 863c 05d0 fcbd 21bc d43d 1e2f 26be
00000080: 2699 fc3c e385 0abe 7efa fdbc 1e24 fdbc
00000090: 556e dd3d 9386 1dbe 2b10 b0bd e9f0 42ba
000000a0: d7ae 23be 04c6 f33c 9abd ad3c 894d e13c
000000b0: 1148 65bd e7be c23c 07a3 3c3d d9ce af3d
000000c0: ce04 393d 7d2d f53d 2a03 d93d 4852 32bd
000000d0: e195 fe3d 45e7 323c b7c6 263d b867 cdbd
000000e0: 92fd 513d d2b0 6cbc 4c24 febd 055a 83bd
000000f0: 3e5e 2abd 8059 8bbd c9b5 78bc 9347 b4bd
00000100: 264a 853d eaae 75bd 232d 6b3a 309d 693d
00000110: 793f 3c3d c6ad 2bbe 26ec b7bd 1f6b 00be
00000120: 4e04 14be 2fc3 8c3d 914c b83d 989a 0ebe
00000130: bebf 9abd 475b 8b3d b182 e33d 0c6a 0e3e
00000140: dee8 523d 87f5 e5bd c0fa b6bd e6f1 bf3d
00000150: ba01 10be b221 aabd 164d fbbd 467f 02be
00000160: 3b92 893c fb3b 6cbd 63b4 01be 8ae2 0dbe
00000170: b643 f93d 1af2 bd3d 606f 8a3d d769 543d
00000180: 8575 bbbd afdc 6dbd 5fe9 bfbc f424 3d3c
00000190: b7d7 c0bc 2f07 c9bb faaf 89bd a03e 91bd
000001a0: 229a 3b3d 1709 10be a461 153c 097c 0b3e
000001b0: 1cb6 f2bd 79be 4ebd 355e c9bc 18fe 95bd
000001c0: ff2e 3f3d 1c52 0e3d 2873 b13d b599 12bd
000001d0: 9990 323d 258e 613c 9d4c d1bd 376e 14be
000001e0: 7600 a83d ef5e d0bd de88 68bd b108 6cbd
000001f0: 8253 0bbe 4ba0 923d b457 83bc 7ddc 90bd
00000200: f988 23be 9d8a 9b3c 6a52 80bd f247 1dbc
00000210: 8d06 48bd d24e 993d 4efb 20bd 64a9 693b
00000220: 2a96 a23d ecec a23c 866a e2bd 24dc 1dbd
00000230: f100 38bd 8063 46bc 152e 893d ab9c 10bd
00000240: b36c 65bd 1430 d4bd 67e5 903d 4b8e 24bd
00000250: 12f5 b1bb f80d 01bd a5ae f5bd 9aa5 5c3d
00000260: 93e8 d23d 7025 babd 9b4e 8f3c a1fc 363c
00000270: 449a 5bbd 2431 fbbc 9e19 d0bc c848 853d
00000280: ff02 49bc 02ce 22be 9e57 5bbd 78fb cbbd
00000290: 06c5 4fbc 4e2f cdbd 8253 0b3c a19a 1fbd
000002a0: f9f4 adbd 9be0 f3bc 58b6 e7bd cff5 67bd
000002b0: 98f4 1e3d 2c27 8bba 7d83 a13d e69b 0f3d
000002c0: fd0b 893d 40d8 dc3d 8f03 b03d e69f 15bd
000002d0: 7eff 9abd cf76 eb3d 6c20 573d e394 003e
000002e0: ec79 be3d f443 8b3d 79f3 653b b5ec 5cbc
000002f0: 1cc3 85bd bbc5 e03d 1133 a2bd 684a 883d
00000300: a81b c1bc 9a91 adbd fe27 c4bd 94a7 0d3d
00000310: 6333 febc f341 a13d 4ed8 7abd 3ab0 6ebc
00000320: 22fe 1c3d adcc f63d 0e72 e9bd 826f c0bd
00000330: 8310 9fbd 4f1c 153d 5acc f93d a3f6 f13c
00000340: f3a3 7fbb 22fb 6d3d 9047 d6bd ff87 0c3e
00000350: dc66 ed3d 793a eebd 24bc 34bd 413a 6e3d
00000360: 1c7b a5bd 9895 6ebd 4282 913d 0521 b73d
00000370: 4873 b5bd 0713 3d3d 0586 dcbd 9be2 b2bc
00000380: 45e5 1cbe 723c 13be de4f 28bd cf55 aabd
00000390: 1161 a5bd f4e4 053d dacc 9e3d fffa bbbd
000003a0: 5feb c83d c69c 0c3e dfca 69bd 9f86 043d
000003b0: 9043 35bd 2b48 a2bc df55 51bd 22ef 513c
000003c0: e391 0e3e 00c3 25bd 4d5e 8bbd c0bb 0b3e
000003d0: 2bee 923d 11f7 c3bd 4ec2 fc3d f2f9 57bd
000003e0: 8267 383d cd5d b3b9 9ef7 b6bb 8810 aabd
000003f0: 1221 dcbc d083 06be 1007 0fbd fc74 703d
-0.017970627 0.058616202 -0.15246986 0.060373325 0.005726148 0.08675963 -0.06586784 -0.049664732
0.10422468 0.13638273 -0.09832967 -0.13112526 0.12610777 0.04463382 0.10041855 -0.13871904
0.04291237 -0.13827598 -0.036769796 -0.039246242 -0.06456114 -0.09252414 -0.12297512 -0.018120598
-0.12268975 -0.08970142 -0.111127436 -0.052797895 0.016390795 -0.12344364 0.10387445 -0.16228911
0.030834746 -0.13527636 -0.031003233 -0.030901011 0.1081206 -0.15383367 -0.08596834 -0.0007436411
-0.15984665 0.029757507 0.021208573 0.027502792 -0.05597693 0.02377267 0.046053912 0.08584375
0.045170598 0.11971567 0.105963066 -0.0435355 0.12430931 0.010919397 0.040716853 -0.100295484
0.051267214 -0.014446454 -0.12409267 -0.06413654 -0.041593783 -0.0680418 -0.01518006 -0.08802714
0.06508283 -0.059981264 0.00089712645 0.05703467 0.04595897 -0.16765508 -0.089805886 -0.12540863
-0.14454767 0.06873166 0.08998979 -0.1392616 -0.07556103 0.06804519 0.11108912 0.13907641
0.05149161 -0.11228471 -0.089345455 0.0937231 -0.14063159 -0.08307208 -0.12270562 -0.12743863
0.016793361 -0.05767439 -0.12666468 -0.13855949 0.12171118 0.09274693 0.06759524 0.05185875
-0.091532744 -0.05807179 -0.02342671 0.011544455 -0.02354036 -0.0061348896 -0.06723018 -0.07092023
0.04580129 -0.14065968 0.009117518 0.13621534 -0.11851141 -0.050474618 -0.024581054 -0.07323855
0.04667568 0.034746274 0.086645424 -0.035791118 0.04359493 0.0137668 -0.10219691 -0.14495169
0.08203213 -0.10174357 -0.05677115 -0.057625476 -0.13606074 0.0715948 -0.016033031 -0.07073305
-0.1597022 0.018986994 -0.06265719 -0.009599673 -0.048834372 0.07485737 -0.039302163 0.0035653943
0.07938798 0.019888364 -0.11055474 -0.03854002 -0.044922773 -0.012108684 0.066982426 -0.03530566
-0.056011867 -0.10360733 0.07075005 -0.040174764 -0.005430826 -0.031507462 -0.119962014 0.053868867
0.10298266 -0.09089172 0.017493537 0.01116863 -0.053613916 -0.03066308 -0.02540284 0.065080225
-0.012268781 -0.15898898 -0.053550355 -0.09960073 -0.012681251 -0.10018788 0.0085037965 -0.038965825
-0.084939905 -0.029770186 -0.11314076 -0.056630906 0.03880748 -0.0010616533 0.078864075 0.035060786
0.0669174 0.10783434 0.08594429 -0.036529444 -0.075682625 0.1149727 0.052521154 0.12556796
0.093005985 0.068000704 0.0035087748 -0.01348417 -0.06531355 0.10975214 -0.079198964 0.06654817
-0.023572758 -0.08475037 -0.095779404 0.034583643 -0.031030362 0.07873907 -0.06124144 -0.014568383
0.038328297 0.120507576 -0.11398707 -0.093962684 -0.07766821 0.03640395 0.1219718 0.02953655
-0.0039007633 0.058100827 -0.10462868 0.13723753 0.115918845 -0.116322465 -0.044124737 0.058161024
-0.08080122 -0.058248132 0.07104923 0.08941845 -0.08859879 0.046160724 -0.1076775 -0.02183657
-0.15321834 -0.14378527 -0.041091792 -0.08317148 -0.080751546 0.03268905 0.07753916 -0.09178733
0.098105185 0.1373168 -0.05707824 0.032354947 -0.044253886 -0.019809803 -0.051107284 0.012813361
0.13922839 -0.04046917 -0.06805096 0.1364584 0.07174333 -0.095686086 0.12341748 -0.0527286
0.045020588 -0.00034211428 -0.0055837175 -0.08303934 -0.026871238 -0.1313622 -0.034918845 0.058705315

fc2.weight f4 [256, 512]
00000000: 0793 153c 0d82 c2bc b26a 76bd 11c6 5dbd
00000010: 74c9 dd3c cfc5 f23c 5a1e 27bd 446e 40bc
00000020: d01a aabc fa6e 023d 9899 23bd c160 63bd
00000030: 7c23 24bd c8f1 d23c 6ec2 cb3c 57df 18bb
00000040: c650 c9bc aa34 6cbc 0e11 f43c 4946 e3bc
00000050: 6f0f 693b 8e75 e2bb 8733 cbbc e7fd f93c
00000060: d733 3f3d ddb1 9bbb ea97 603c cf0d d9bb
00000070: c462 073d f234 48bd d150 3c3c 66b7 8abd
00000080: 599c 503d 29a1 05bc 1433 153c e860 5fbd
00000090: 66c3 79bd bc18 ed3b df33 91bd 518b 3e3c
000000a0: 4d14 c4bb 2b79 8dbc a9bc 1ebc b6ca dc3c
000000b0: 4407 37bb 1f38 a7bd b18b 56bd 5129 54bd
000000c0: ec4b 83bb bae2 06bd 7dcd 403d f74b 293d
000000d0: e981 1ebd 48e8 71bd d52a b0bd 3137 803d
000000e0: cdc6 6a3c f450 9d3c 0e09 853c 49b0 14bc
000000f0: 49d7 12bd 36c8 a53c ccf4 2cbd b8ff 16bd
00000100: 5673 87bd e0a9 6fbd 5f7f 88bc 75b5 5abd
00000110: 0dc6 a3bd f3e7 313d 5788 af3c 7e69 063d
00000120: daa9 3ebc 7a48 013d edc5 473d a593 8ebc
00000130: d5aa 80bc 732b 8b3c b63c 31bb 4b05 c6bd
00000140: 072e 1abd 6b89 493b b5b7 9dbd 41a6 733d
00000150: 6ca2 5fbc b28f b13c c651 363d 0aad 8a3d
00000160: e8c4 be3c aad8 b43d a0db 9c3c 4b91 1b3d
00000170: ce2f 0e3d 21ef 45bd d4c4 91bd def4 4abd
00000180: 6284 1abd d2aa 3fbb c7b3 eabd b0d2 89bc
00000190: 5e8d 5f3d a9e3 57bb 2bc7 563d 8088 be3c
000001a0: 9440 88bd 575f 9dbd cb4f 823c 4829 4cbd
000001b0: 5e74 7dbd 22c2 f6bb 95c9 0e3b d5d4 5d3d
000001c0: d0b8 2c3c dde3 dabc 09ff 2dbd 273a 35bc
000001d0: a0ea e0bd 8890 f8bd 5ab6 a93c c220 80bc
000001e0: be51 ebba 71cc 7bbd 1191 263b 5325 84bd
000001f0: 6479 db3c ebdc 37bd ebc6 1bbe 8c5a c139
00000200: 4a7f 2d3d 368c 6e3d 8326 7f3c 0e46 5b3d
00000210: 7ce3 823b 17f5 ddbc 2214 2c3c b267 873d
00000220: 1b2c f03c 1262 96bd 04e1 09bd db91 953b
00000230: 7733 0dbd 7316 573a 6108 e6bd af80 a1bc
00000240: 2207 c4bc 5c9b 9f3c d2e8 233c b609 9dbc
00000250: a000 4fbc 0cbb b23b 4c98 b23a 43a8 74bd
00000260: 7527 8ebc f6bd 5dbd f197 4abd 9336 763b
00000270: 2830 833d 7074 1e3d f197 033c 3dea 1cbd
00000280: 0ca3 5e3c 420a 753d c8b4 593c 0454 ea3c
00000290: ab84 02bc 32cc 0b3d c96c 983c 9e71 21bd
000002a0: 03b9 b23b 6f43 42bd 379b 54bc 925d 1b3c
000002b0: 3461 3bbd aae9 d7bc ff8d 683d de4e 57bd
000002c0: e8be 403d 66ee 153d 5910 b83d 18b6 d9bc
000002d0: 068d 93bd e315 60bd b92f 893c 01c1 4bbd
000002e0: 87b7 e7bd 614b 0abd f139 34bc 5cf8 4d3d
000002f0: a0b2 7dbd 12f3 063d a878 90bd cc22 febc
00000300: 35ef 80bc bf52 09bd f4cb 9dbd 2770 643d
00000310: 91d5 fbbc cd84 b43c b8cb 80bd ee10 1dbd
00000320: 93fe 9dbd 65a7 cfbc 87c0 a43c 6513 143d
00000330: 310c 06bd 4d4e a43d a7de d9bd 9f82 833d
00000340: 5f74 633c c1ae 3a3c c597 33bd 0c26 2a3d
00000350: 844a a83c 0cad 363c 3385 04bd d1e4 903d
00000360: b0b5 8cbd 961f 0b38 02cd eb3b 094b 1b3d
00000370: eff5 b6bd 81b2 b2bc 9b60 45bc c7c5 b0bd
00000380: c929 353d e46c 623d a48e 0fbc 6794 413c
00000390: 31bf 273c ee8f 8a3a 4380 ce3a d5ff 8d3c
000003a0: 0f28 483d abd2 df3c dd93 d0bc 7a42 173d
000003b0: c025 a33c 9abf ecbc 3f48 80bd 101c 86bc
000003c0: 6e4e 333d 1499 bf3c c722 473d 2df1 b53d
000003d0: ce89 843b 4205 d93c cdc2 ef3b 9030 c9bc
000003e0: 011c 35bd 1ba0 0ebc 82a2 9d3b 02d5 e9bc
000003f0: 2e33 49bd 972f 3bbd 199d 0b3d b57e 02bb
0.009129292 -0.023743654 -0.060160346 -0.05414397 0.0270736 0.029635338 -0.04080043 -0.011745039
-0.020764738 0.031844117 -0.0399414 -0.055512194 -0.040072903 0.025750056 0.024872985 -0.002332648
-0.024574649 -0.014416853 0.029793289 -0.027743476 0.0035562178 -0.0069109863 -0.024804844 0.030516578
0.046680298 -0.0047514276 0.013708094 -0.0066239606 0.033053175 -0.048878618 0.0114938775 -0.06773262
0.050930355 -0.008156099 0.009106416 -0.054535776 -0.060977362 0.0072356146 -0.07089972 0.011629895
-0.0059838654 -0.017269691 -0.009688535 0.026952129 -0.0027927915 -0.08165001 -0.052379314 -0.051797215
-0.0040068533 -0.032931067 0.04707097 0.04133221 -0.03869811 -0.05905941 -0.086019196 0.06260527
0.014329624 0.01920364 0.01623967 -0.009075233 -0.035849843 0.02023707 -0.042225644 -0.036864966
-0.066137955 -0.058511615 -0.016662298 -0.053395707 -0.079967596 0.043434095 0.021427317 0.03281545
-0.011637175 0.03156326 0.04877274 -0.017404387 -0.015706459 0.016988492 -0.0027044243 -0.09668978
-0.03764155 0.0030752074 -0.07701055 0.059484724 -0.013649564 0.021674965 0.04451158 0.06771286
0.023287252 0.08830388 0.019147694 0.03798036 0.03471356 -0.048323754 -0.0711762 -0.04954993
-0.037723906 -0.0029246104 -0.11460071 -0.016824096 0.054578178 -0.0032942093 0.052436035 0.023258448
-0.06652942 -0.076842 0.015907189 -0.049844056 -0.061878555 -0.0075304667 0.0021787633 0.05415805
0.01054211 -0.026719982 -0.04247955 -0.011061228 -0.10982251 -0.12136942 0.020716835 -0.01564062
-0.0017953438 -0.061474267 0.0025416056 -0.064524315 0.026791282 -0.04488842 -0.152126 0.0003687929
0.04235772 0.058239184 0.015573147 0.053533606 0.0039944034 -0.027094407 0.010502847 0.06611575
0.029317906 -0.07342924 -0.033661857 0.0045645065 -0.03447291 0.00082049443 -0.11232067 -0.019714681
-0.023929182 0.01948326 0.010004239 -0.01916967 -0.012634426 0.0054544266 0.001362571 -0.05973078
-0.017352799 -0.05413624 -0.04946131 0.003756915 0.064056695 0.038685262 0.008031831 -0.038309325
0.013588678 0.059824236 0.0132877305 0.028604515 -0.007966201 0.034130283 0.01860656 -0.039414994
0.005454184 -0.04742759 -0.012976459 0.009482758 -0.045746997 -0.026356537 0.056776043 -0.052565448
0.047057062 0.036604308 0.08987493 -0.026576087 -0.072046325 -0.054708373 0.016746389 -0.04974461
-0.11314302 -0.033763293 -0.011000142 0.050285682 -0.06193793 0.032946654 -0.07054263 -0.031022452
-0.015739063 -0.03352618 -0.077049166 0.05577102 -0.030741485 0.02203598 -0.06288856 -0.038346224
-0.07714572 -0.025348375 0.020111335 0.03615131 -0.03272647 0.08022747 -0.10638171 0.06421398
0.0138827255 0.011394204 -0.04384591 0.04154019 0.020543344 0.011149656 -0.03235359 0.07074893
-0.06870592 3.31696e-05 0.0071960697 0.037913356 -0.08933627 -0.021813633 -0.012046958 -0.08631473
0.044229303 0.055279627 -0.0087620355 0.011815167 0.010238455 0.0010571459 0.0015754778 0.017333904
0.048866328 0.027322134 -0.025461132 0.03692863 0.019915462 -0.028899956 -0.0626378 -0.016370803
0.04377597 0.023388423 0.04861715 0.08883891 0.004044748 0.026491765 0.0073169232 -0.02455929
-0.04421616 -0.008705164 0.004810632 -0.028543953 -0.049121074 -0.045699682 0.034085367 -0.001991195

fc2.bias f4 [256]
00000000: 403b 82bc 17e8 87bc 202b 6abd 7f5d 0cbd
00000010: e827 0b3d 44ca 91bc b5f5 acbc 223e d33b
00000020: c511 0b3d 9dc9 1b3d 0e00 f83c fa27 82bd
00000030: a5b8 08bc f29a 2a3d 308b 90bc f714 803c
00000040: 1bb8 9b3c 52c7 f53b 5839 d5bb d0a1 41bd
00000050: ceda c73b 4dd2 1c3d d0df 33bd b49f 913b
00000060: 77a6 29bd 3ffe 43bd 39d4 773c c745 1d3c
00000070: 4045 2a3b e03f 50bd 4b95 b43c 06ef 4abd
00000080: e206 5b3c 0d38 8c3c 3b84 293a ee47 44bb
00000090: 2914 543d 44a4 1bbd 573f ca3c e653 28bd
000000a0: b54c 9f3c 1014 eb3c 4a71 783b 1fb3 36bb
000000b0: b2ab 1b3b aa55 a13b 2adb 5d3d cf3f 9ebc
000000c0: fc51 9cbc f885 68bc e4d7 c63b 4037 91bc
000000d0: 2747 443c ee14 6c3c 14b5 5b3c 6294 153d
000000e0: 5d05 48bc 90ce ebbc ce22 27bd 2b6b 23bc
000000f0: 1b9b 4cbd 9609 f138 4f57 c2bb 7806 843c
00000100: 4122 403c 1c17 f33c 5c2e 90bc a51a ba3c
00000110: 0d33 a1bc 7958 963b 1baf b9bc f605 133d
00000120: a92b 253c 212e de3c 1845 f03c e3e9 dd3a
00000130: df0f a9bc 0db5 8b3c c81e 493b c6bd b8bc
00000140: ab3f f3bc e824 b33c 3f94 14bd 57fc 243d
00000150: a06c 84bc 2a5e 593d e6ff 073c 83a4 dc3c
00000160: 38bc 0b3d 950a 263d 8959 8c3b 7315 f93b
00000170: b224 a4bc 4299 28bd 311e 933c 9a23 7dbc
00000180: 9fc2 d23c 2693 19bd 89b9 27bd 2bc1 603c
00000190: f9d9 24bc 5506 12bb a5af ad3c 4c9a 6bbb
000001a0: e4fb 53bd 7a3b 13bd d9bf ac3c b3b1 12bc
000001b0: 9199 e03c 4020 c5bc 375e 993c 0840 d63b
000001c0: 6d5d 88ba e419 963c 40eb 53bc b117 983b
000001d0: 7d56 44bd 5202 93bc 08b1 7f3c 498a 2bbd
000001e0: 1aeb f63c 8f39 3f3c a184 71bc 409f b63c
000001f0: 61f8 a9bb b29a c7bc a4f6 31bc 3297 2b3d
00000200: 6ce1 11bb 6177 2c3d b43e 28bd 18bc 653b
00000210: f527 8b3b 5194 d03c 3d5b e23c c091 f73c
00000220: 841b 31bd bf1c aa39 8f1e 36bd 759e 97bc
00000230: 24bb 663c 0432 b6bb f230 afbc 5d0a 7f3b
00000240: 6a46 b13c cb1c f8bc 05f5 353c 9012 fc3c
00000250: ba11 f8bc 00ea d3bc e0e7 78bc d87d 193d
00000260: a967 c0bc a3b2 123d dc7f 1abd b8fe cdbb
00000270: bff4 133c 5e64 373c e900 533d 717d ad3c
00000280: 148f febc 5939 443d 1c0f 0dbc a51d c23c
00000290: 3bcf d7bc 9a06 dd3b d685 3e3d a6dc 8dbd
000002a0: bf9e ddbb 53f3 0fbd 291a fd3b acec a63c
000002b0: 5651 07bd 1983 01bd f123 ff3b ecf9 8fbc
000002c0: 4a7e b53c 2520 31bd 8a58 343d bb02 e1bb
000002d0: c7c1 abbd 1577 dabb 0476 d63b d537 d83b
000002e0: c067 b33c 3232 94bc 6dc0 c43c 926f 083c
000002f0: c98c cdbc 87af 803b 6edc 823c e59c 29bc
00000300: 50e4 c73c 0ae6 e43c c669 acbc b63d 87bd
00000310: 7965 133d fb88 9d3b b93c ad3c d8bb e9bb
00000320: 77fb 253d 7eaa b13c 8757 bc3c 98fd f3bc
00000330: b5cf 21bb b79e d5bc a279 2f3c 8111 b63c
00000340: 22b4 dabb 5954 c4bc a394 0dbd 83d1 29bd
00000350: 4b58 bbbc 20f7 acbc 7ecc 363d 6dce 1d3c
00000360: c123 983c 815c 36bb 65b8 e7bc 0252 653b
00000370: 8516 ad3c d792 723d 4cfb 97bc c253 b03c
00000380: 24db 103d ddbd abbb 138f 093d 3503 d0bc
00000390: 4e28 e53c 11f2 61bc b95e f43c a23c efbc
000003a0: 3559 6bbd 959c 80bd b814 1bbd ec03 28bd
000003b0: 0d43 b8bc 31c3 bc3c b856 7e3c 84b2 4bbd
000003c0: 5b60 2b3b 2360 043d 418a d8bb e8cd 5a3c
000003d0: 2961 eabc ac7d 18bd 92c5 ddbc fb77 f3bc
000003e0: ed04 13bd a405 74bc 57e4 2dbd 2bf7 16bd
000003f0: 5a4f 0abc 0461 1dbd 04ac 62bd a7a0 6c3c
-0.015897393 -0.016590161 -0.057170033 -0.034268852 0.033973604 -0.017796643 -0.021113256 0.006446616
0.033952493 0.03803407 0.030273464 -0.06355281 -0.008344804 0.041651674 -0.017644495 0.015634997
0.019008687 0.0075005675 -0.00650708 -0.047273457 0.0060990816 0.038286496 -0.043914616 0.004444087
-0.04141852 -0.04784989 0.015126281 0.009599156 0.0025981218 -0.050842166 0.022043845 -0.049544357
0.01336834 0.01711657 0.0006466542 -0.00299501 0.05177704 -0.037998453 0.024688406 -0.041095637
0.019445756 0.02869609 0.0037909322 -0.002787776 0.0023753461 0.004923542 0.05416409 -0.019317536
-0.019082062 -0.014192097 0.0060682166 -0.01772654 0.011979855 0.014409287 0.013409872 0.036518462
-0.01220831 -0.02878502 -0.040804677 -0.009974281 -0.049952608 0.00011493561 -0.005930818 0.016116366
0.011726917 0.029674105 -0.01760023 0.022717783 -0.019677663 0.0045881835 -0.022666505 0.035894357
0.01008121 0.027121605 0.029329821 0.0016930666 -0.02063745 0.017054105 0.0030688513 -0.022551429
-0.029693445 0.021868184 -0.03627419 0.040279713 -0.016165078 0.053068317 0.008300757 0.026933914
0.034115046 0.040537436 0.0042831344 0.007601434 -0.020037029 -0.041161783 0.017958732 -0.015450383
0.025727568 -0.037493847 -0.040948424 0.01371793 -0.010061734 -0.0022281606 0.021201918 -0.0035950122
-0.051753893 -0.035945393 0.021087574 -0.0089535 0.027416976 -0.02406323 0.018721683 0.006538395
-0.001040382 0.018322892 -0.012934506 0.004641496 -0.047934044 -0.017945442 0.015606172 -0.041879926
0.030141402 0.011671438 -0.014741094 0.022292733 -0.00518708 -0.024365757 -0.010862026 0.041892238
-0.0022259606 0.042106036 -0.041075423 0.003505474 0.0042467066 0.025461348 0.027631396 0.030220866
-0.04323913 0.00032446344 -0.044462737 -0.018508175 0.014082704 -0.0055601615 -0.021385644 0.003891609
0.021640021 -0.030287167 0.0111057805 0.03077057 -0.03028189 -0.025868416 -0.015192002 0.03747353
-0.023486929 0.035814893 -0.037719592 -0.0062864684 0.00903052 0.011193363 0.05151454 0.02117798
-0.031074084 0.047906253 -0.008609559 0.023695776 -0.026343932 0.0067451717 0.046514355 -0.06926851
-0.006763309 -0.03514416 0.007724066 0.020376526 -0.033036552 -0.031619165 0.007786267 -0.017575227
0.022154946 -0.043243546 0.04402975 -0.0068667806 -0.083865695 -0.0066670277 0.0065448303 0.0065984526
0.021900058 -0.018090341 0.024017537 0.008327382 -0.025091546 0.0039271745 0.01597425 -0.010352348
0.02440086 0.027941722 -0.02104653 -0.06603567 0.035985444 0.004807589 0.021147119 -0.0071329884
0.04052302 0.021687742 0.022990955 -0.029784009 -0.0024690453 -0.026076658 0.010710152 0.022225143
-0.0066743055 -0.023966001 -0.03456558 -0.04145957 -0.02286925 -0.021113932 0.044628613 0.009631735
0.018571736 -0.0027826133 -0.028286168 0.0034991507 0.021128902 0.05922207 -0.018552445 0.021524314
0.03536524 -0.0052411393 0.03358371 -0.025392154 0.02797332 -0.013790623 0.029830324 -0.029203717
-0.05745812 -0.06279866 -0.037861556 -0.041019365 -0.02249291 0.023042293 0.015523605 -0.049730793
0.0026149962 0.032318246 -0.006608278 0.013354756 -0.028610783 -0.037229225 -0.027071748 -0.029720297
-0.03589337 -0.014893923 -0.04245409 -0.03685681 -0.00844177 -0.0384226 -0.055339828 0.014442599

fc3.weight f4 [1, 256]
00000000: ccad 94bc 20c2 1b3d 5185 1ebd e409 cabb
00000010: a441 c9bc 851e e63c 0f40 0e3c 864d 2a3c
00000020: 0fd9 6bbd 36c4 a3bb 944c 5e3c 91e7 3f3c
00000030: b5df e63b dd69 cd3c 3196 8dbc 2444 c83a
00000040: 5b02 dabb 1483 a63c 29f3 99bc ee1b e33c
00000050: 026f c6bc 8546 083d 9077 9f3a 8270 eebd
00000060: b43b a5bc 13c0 813c bf1e 4d3c 7e59 8abc
00000070: 3929 163c 9eb0 543b 1e52 363c 540b 5abd
00000080: 6704 d73c 8afa 583c 9461 873b 806f 763c
00000090: d5f3 02bd 81aa 33bc e6b6 033e 53d5 97bb
000000a0: 6d7e 11bd 78eb ed3c 41a9 e13b 2fcc 19bb
000000b0: a578 1cbd c141 713d c7a4 153c 132c 16bd
000000c0: 58f5 c0bc 4203 4dbd 1632 8ebc 5ef4 1fba
000000d0: c01d 0bbd c9c9 053c f92e 793d 161a 473c
000000e0: 65d2 62bd 583e 07bd ade4 2e3c dcac 16bd
000000f0: 6f40 c9bc bdb8 06bc e8e9 12bd b461 9b3c
00000100: 75d3 0e3d 3eed d33d c83c 5cbd 26cd 17bd
00000110: 4733 b5bc d031 26bd 7b40 d9bb 9db7 1f3c
00000120: ae2c 033a 7499 d8bc da1e 8a3d 731b eb3c
00000130: 5fe4 153c 8761 4a3d 67eb 8cbc aac9 fe3b
00000140: 6439 063d 3e1a e83c b5da d43b 3921 63bb
00000150: 1a84 243c 98d6 473c 7f80 babc ecd2 fa3b
00000160: 0959 1ebd 401f 073c 86f9 17bc 632b 86bc
00000170: 264f 2bbd 1573 abbc ef08 3f3d 1e9a f3bc
00000180: e8d5 a93c ff9a fdbc aa51 acbb fc9a 65bc
00000190: 70f5 c73c 9c50 563c 9692 663d aa0b 213c
000001a0: 1f43 a53c bbfe 153d 27b2 d73c 0ce4 9a3c
000001b0: 6b19 1c3c e14a 6abd 11cc 7e3c be41 fabc
000001c0: 9879 0e3c 7a82 573c 165d 83bc d1e1 4d3c
000001d0: 8671 f13c 5fea d9bc 3fc4 fd3c e690 0539
000001e0: 9c92 85bc 4421 21bc c4ab a13c f22e 0e3d
000001f0: 9c60 bf3b a7a7 0abc 60de 5a3d 0de9 f7bc
00000200: dff0 8e3b a35b c6bc 190b debc c827 2fbd
00000210: cba7 15bc c196 063d 4712 1d3c a11e 903c
00000220: 3378 6fbc 58a2 373c 9069 1ebd c61e 6bbb
00000230: 86f6 22bd d1ba 703d dd9f cc3a c80c 933c
00000240: 3cac 7c3d 7866 6e3c 342b 5e3c 06da 4cb9
00000250: 2a98 1b3c 79e5 863c 970d 253c 9bb5 ba3c
00000260: f768 8d3c 2a1d a23c 9d98 133d f233 37bd
00000270: bd0e 1cbd 1ac8 a33c 15fc aebc 2a29 ffbb
00000280: 780c 523c c8ea 4e3d e370 ad3c fd81 a4bc
00000290: 104c 233b e823 3a3c e347 d43b 2e00 8f3c
000002a0: 544b 103c 5c92 e0bb 7c63 c43c 8f5a eebc
000002b0: 0cae d93c 0dcc 39bd 1277 4bbd 95a3 cc3c
000002c0: 8b75 3ebc f616 e5ba 597f 7b3c e69a a3bc
000002d0: bea5 09bd 7425 023d dcd2 d5bb 211a 343d
000002e0: faed aa3b c443 31bd da50 86bc 213a ae3c
000002f0: 690b 67bc ac0a 153d 69b1 c63d ef41 9cbd
00000300: 4ce6 353c e755 d33c eb36 2b3c 4995 c1bc
00000310: dbbf 2e3c 2202 8ebc b892 0b3c 30d2 703b
00000320: 9328 5bbc d25b 8cbc 282e 9dbc 0a5c 21bd
00000330: ffb6 1b3c 567a 10bc 6e45 aebd 7bf9 c3bd
00000340: 5bb5 f23c 76d6 54bd 36f1 86bc b5f2 b63b
00000350: 61b4 65bc f98f 97bc 74ac 26bd 61f4 8c3d
00000360: f75e a2bc 4b26 ff3c 63c4 ad3c f06c 1b3c
00000370: f1aa 283c 96e6 e73b 84e0 1abd 285c 8c3c
00000380: edbd c53b 54ed 40bc 9ab5 673c 9911 253c
00000390: 392f 713c a5f1 b73c 4d3f 923c 8cfd c2bc
000003a0: 2a0e 4cbd 273a 37bc 677b 0d3b 39f6 6bbc
000003b0: d7b2 9cbb d4bc 103c 9f75 ab3c 5eab 14bd
000003c0: 961d abbc c501 453d 588d f83c 5ca9 74bc
000003d0: 0e8f f13b 27eb 693c 9896 0e3d f69d 74bc
000003e0: 10ef 8cbc 01ab 4ebd 6561 a33c 359b 2d3d
000003f0: 7b32 e9bb 53e6 c43c 934e a8bc 4b9a 873c
-0.018149279 0.03802693 -0.03870136 -0.00616573 -0.024567433 0.028090725 0.008682265 0.01039446
-0.05758005 -0.0049977554 0.013568062 0.011712925 0.007045711 0.025074894 -0.01728353 0.0015279097
-0.006653113 0.020326175 -0.018792706 0.027723279 -0.024222855 0.033270378 0.001216637 -0.11642553
-0.02017007 0.015838658 0.0125195375 -0.016888376 0.009165102 0.0032453905 0.011127977 -0.05323346
0.026247216 0.013243327 0.0041315053 0.015041232 -0.031970818 -0.010965944 0.12862739 -0.0046335845
-0.03552096 0.029042944 0.0068866317 -0.002346765 -0.038200993 0.0589006 0.009133524 -0.036663126
-0.023554489 -0.050051935 -0.017357867 -0.0006101782 -0.03396392 0.008165785 0.060835812 0.0121522155
-0.05537643 -0.03301844 0.010674638 -0.036785945 -0.024566857 -0.008222756 -0.0358676 0.018967487
0.03486963 0.10347985 -0.053768903 -0.03706088 -0.022119178 -0.04057485 -0.006630001 0.009748367
0.0005003911 -0.02644036 0.06744166 0.028699612 0.009148686 0.049409416 -0.017202092 0.007775505
0.032769576 0.028332826 0.0064957985 -0.0034657253 0.010041261 0.012197159 -0.02276635 0.0076545384
-0.03865913 0.008247197 -0.0092758 -0.01637811 -0.04182353 -0.020928899 0.04663938 -0.029736575
0.020731881 -0.030957697 -0.0052587586 -0.014014002 0.024409026 0.013080742 0.05629214 0.009829441
0.020173607 0.036619883 0.026330067 0.01890757 0.0095275445 -0.057200316 0.015551583 -0.030548926
0.008695982 0.013153667 -0.016035598 0.012566046 0.029473078 -0.026601015 0.030977366 0.00012737847
-0.01630526 -0.009834591 0.019735225 0.03471274 0.005840374 -0.008462823 0.05343473 -0.030262494
0.00436221 -0.024213618 -0.027104901 -0.042762548 -0.009134243 0.032858614 0.009586877 0.01759273
-0.01461606 0.011208139 -0.03867489 -0.0035876497 -0.039785884 0.058771912 0.0015611608 0.01795043
0.061687693 0.014550798 0.013560105 -0.00019536176 0.009496728 0.016466843 0.010074041 0.022791674
0.017261965 0.019789297 0.036034215 -0.044727273 -0.038099993 0.019992877 -0.021360436 -0.0077868896
0.012820356 0.050516874 0.021171993 -0.020081514 0.0024917163 0.0113611 0.006478296 0.01745614
0.008807022 -0.006853385 0.02397322 -0.029095916 0.02657225 -0.045360614 -0.0496741 0.024980346
-0.011624704 -0.0017478156 0.015350186 -0.019971322 -0.03360533 0.031774 -0.0065253805 0.04397023
0.0052163573 -0.043277517 -0.016395975 0.021267952 -0.0141018415 0.03638713 0.09701807 -0.07629763
0.01110227 0.025797797 0.010450105 -0.023630755 0.010665859 -0.017335001 0.008518867 0.0036746375
-0.013376373 -0.017133627 -0.019187048 -0.039394416 0.009504079 -0.00881823 -0.085093364 -0.09569069
0.029627493 -0.05196234 -0.01647244 0.005583132 -0.014020056 -0.018501269 -0.040691808 0.06882549
-0.019820673 0.03114619 0.021211809 0.009486422 0.010294662 0.0070770485 -0.03781177 0.017133787
0.006034604 -0.011775333 0.014142418 0.010074996 0.014720731 0.022454092 0.01785245 -0.023802541
-0.049818195 -0.011183298 0.0021588446 -0.014401966 -0.0047820616 0.008834083 0.02093011 -0.03629624
-0.020888131 0.04809739 0.030340835 -0.014932957 0.00737179 0.014277256 0.034811586 -0.014930239
-0.017203838 -0.05045605 0.019943902 0.042384345 -0.0071166134 0.024035608 -0.02054528 0.016553065
