agent2_checkpoint_actor.pth (torch_old, 579575 bytes, 6 tensors)

fc1.weight f4 [512, 24]
00000000: ae32 c1bd 5388 4e3d f055 c8bb 033d c0bc
00000010: 5316 b6bd 2aec 9abc 92aa 03bc 8295 f73b
00000020: 8cd9 94bd 12d1 883c d4e9 f03b 039a 89bc
00000030: ab7e 17bd 31bb 1dbc b5d4 013d 620c 54bd
00000040: ef5d 4fbd 9fd8 483c 9ee5 053d 8389 1cbe
00000050: 7ea2 a33b 23c2 2d3c 6b57 003c 281d 3abe
00000060: 147a 783c 673c 28be 694d cabc f627 b03d
00000070: d763 883d 341a 263e 6374 1f3c d769 9b3c
00000080: 666f 86bb dc95 f8bd f31c 47bd a421 913d
00000090: 0ada 45bd 1330 763d 9c83 edbc 07f5 973c
000000a0: 5d8f 9e3c 2afb 4cbe 0e1a 76bd a163 b0bd
000000b0: 9782 74be b884 dc3d fb73 923a 8d20 dbbc
000000c0: 3cc8 853d 4269 15be 8e71 853d a87d 2b3b
000000d0: 1b40 e1bc 0962 5c3d 86ef b43c 8175 2bbd
000000e0: 6094 bc3c 7fa3 d1bd 6baf d8bc b441 d63c
000000f0: 212d 9ebd 0e2c 3c3d abea 82bc cac1 0a3d
00000100: 4336 dd3c 1f4f c9bd 0fd1 733d a949 2d3d
00000110: 21dd 88bd aad8 cabc 6973 9a3c 9311 a73d
00000120: 7f9f b93d 14cf b23b e5c8 4c3d c481 fcbd
00000130: d129 f23d 4b54 283d 68bc 0abd 9cb6 debd
00000140: 1fb0 e63d beb2 5bbd 8d10 c33c 4d78 3c3d
00000150: cc07 063e af87 e23d f6a0 2bbd 6a7e 453d
00000160: 435c 763d 702f c33c 62bd 9d3c 1575 b33d
00000170: 85a1 ad3d 93fb 4a3d aad7 493d 4c26 183e
00000180: 998c 213d 00f8 623e 12ea 3fbc 5779 1dbd
00000190: f43d 36bd 4184 5a3d 7c06 51bd 191c 903c
000001a0: b6e8 1f3d 36ab f13d cbf6 b23b 68a9 56bd
000001b0: 1d7b abbb 3c79 a4bd 9508 aebc 45ae febd
000001c0: 503b aabd cadb e13d 1910 26bc 33ca 25be
000001d0: c68e 2f3d 8546 d5bc 7e59 d4bc 9f4e 34be
000001e0: 92d0 533d 397d fabc 9954 febc 71eb 0abe
000001f0: dc79 bb3d f260 9fbc b9f7 87bd 508f 33be
00000200: c53f 8d3d 388a 03bd 20c2 8d3c ad74 fabd
00000210: 9129 1e3e 5ea8 633d c0db 9c3a 4aa2 cdbd
00000220: 1ed8 1fbc acfb c7bd 2ea0 233d 10ad b0bd
00000230: ad13 483e 07ba 973d 1a57 443d cc2b a8bd
00000240: 15da 1c3d c89b 97bd b317 183d b5e8 933c
00000250: 0a81 433d 0616 283e 2319 a83c b8c2 ea3c
00000260: 591b fd3c 6a12 26bd e390 013d 95d4 a23d
00000270: 1080 c73b 3f0a 563e efd9 1d3d a5e4 613d
00000280: dd9c 693b 5252 b1bd 2cf6 f23c e89e 873d
00000290: 0017 2dbe 588c 4e3e abea 68bc 1008 af3d
000002a0: 9d07 f0bd 87b4 dd3c 2698 003b 27f2 53bd
000002b0: 78a7 b93b b7a0 95bd f68a a1bb 96ea 303c
000002c0: 41ea c9bd 9069 c2bb 6571 09bc 4165 4abd
000002d0: 7eb5 d03d 6b26 10bd 80cb afbb 07df 9f3c
000002e0: 090d 84bd cb27 3fbb 099f 37bd 947e 5ebd
000002f0: a9d0 a63d 7d6f 8d3d 669b 33bd 59ae 31bd
00000300: d3d9 533d 6488 f83b cbb3 963c 1dbd a8bd
00000310: 9a8b 023d ee4c 283d 825a 103d 092b 1cbd
00000320: 10ac 723c 6cb7 90bc f06d 093d fed7 55bd
00000330: 5dc4 a03d db9d 413d a319 d7bb b591 9dbd
00000340: 903d 723d 5610 31bd cfee 403d 60ea 89bd
00000350: 06e8 083e 8e64 e43d 8b24 eb3a a91a 89bd
00000360: 31e5 803d 3a3b 153d f442 dcbc e745 3bbb
00000370: d99a 1b3c f712 2a3e 0c69 cdbc 7235 8cbc
00000380: a3f6 c1bb 8fca 743b be64 463c abb9 64bd
00000390: 819a 6fbd e364 963d 3cae 153b adcb fabc
000003a0: ed54 f1bc 3387 aa3d 8100 603c 001b 053b
000003b0: acfc 82bd a099 a03d e342 f4bc 4c2d 47bd
000003c0: c303 393d 455f 35be bce0 633d 67f2 233d
000003d0: 2cc8 1abc b9c3 723d a14f aabb 3af7 203d
000003e0: 78ec d03d d336 41be 2bc2 843d 058d 533d
000003f0: 555c 40bd 6c5c ff3d 0e2c 2a3d c4ff 553d
-0.094334945 0.050422978 -0.00611376 -0.023466593 -0.08890977 -0.01891144 -0.008036273 0.0075556645
-0.07268056 0.016701255 0.0073520932 -0.016797071 -0.036986034 -0.009627149 0.031696994 -0.05176962
-0.05062669 0.012258678 0.032689683 -0.15286832 0.004993736 0.010605368 0.007833342 -0.18175185
0.015165824 -0.16429292 -0.024695115 0.08601372 0.06659668 0.16220933 0.009732339 0.018971367
-0.004102635 -0.121379584 -0.048611593 0.070864946 -0.04830364 0.06010444 -0.02899342 0.018549455
0.01935547 -0.20017686 -0.06008344 -0.08612753 -0.23877941 0.107675016 0.0011173481 -0.02674892
0.06532332 -0.14590934 0.065157995 0.0026167426 -0.027496388 0.05380443 0.02208687 -0.041860107
0.02301997 -0.102362625 -0.026450833 0.026154377 -0.077234514 0.04594045 -0.015981039 0.033876218
0.027003413 -0.09829544 0.059525546 0.042306576 -0.06682802 -0.024761517 0.01885386 0.08157649
0.090636246 0.0054568145 0.049996275 -0.12329438 0.11824382 0.041096013 -0.033871084 -0.10874674
0.11264061 -0.05363726 0.023811603 0.046013165 0.13088912 0.11061036 -0.04190155 0.04821626
0.06014658 0.02382633 0.019255344 0.08762566 0.08478073 0.049556326 0.04927794 0.14858359
0.039440725 0.22164917 -0.011713522 -0.038445797 -0.044492677 0.053348783 -0.051031575 0.017591523
0.03904029 0.11800234 0.005461549 -0.052407652 -0.005233182 -0.08030936 -0.021244327 -0.12435583
-0.08312094 0.110282496 -0.010135674 -0.16190414 0.04286077 -0.026034603 -0.02592158 -0.17608117
0.05171258 -0.030577289 -0.031046199 -0.13566376 0.09154102 -0.019455407 -0.06639046 -0.17535138
0.06896929 -0.032114238 0.01730448 -0.122292854 0.15445544 0.05558049 0.0011967346 -0.1004072
-0.009756116 -0.097647995 0.03994768 -0.08626759 0.19538756 0.07408529 0.04793463 -0.082114786
0.038293917 -0.0740276 0.037131976 0.0180553 0.047730483 0.16414651 0.020519799 0.028657302
0.03089683 -0.040544905 0.031632315 0.07950703 0.0060882643 0.20902346 0.038537916 0.055149693
0.0035646476 -0.086582795 0.0296584 0.06622106 -0.16903305 0.20170724 -0.014216105 0.0854646
-0.11720202 0.027063621 0.0019621938 -0.051744606 0.005665716 -0.073060445 -0.0049298955 0.010798117
-0.098591335 -0.005932994 -0.008388852 -0.04941297 0.10190867 -0.03519289 -0.0053648353 0.019515527
-0.06447799 -0.0029168006 -0.044829402 -0.054319933 0.081452675 0.0690603 -0.04384937 -0.04337916
0.051721405 0.0075846184 0.018396279 -0.082391955 0.031871416 0.04108899 0.035242565 -0.03812698
0.014811531 -0.017665587 0.03355211 -0.05220794 0.07849953 0.047269683 -0.0065643354 -0.07693807
0.05914074 -0.04322847 0.047102746 -0.067341566 0.1336976 0.11151992 0.0017939968 -0.06694538
0.06293715 0.036433436 -0.026887394 -0.00285756 0.009497368 0.16608797 -0.025074504 -0.017115328
-0.005919294 0.003735218 0.01210898 -0.05584113 -0.058496956 0.07343461 0.0022839447 -0.030614698
-0.029459441 0.083265685 0.013671995 0.0020310283 -0.063958496 0.07841802 -0.02981705 -0.048627183
0.045169603 -0.17712124 0.055634245 0.040026095 -0.009447139 0.059268687 -0.005197481 0.039298274
0.10201353 -0.1886857 0.06482347 0.05164816 -0.046963055 0.124688 0.04154592 0.05224587

fc1.bias f4 [512]
00000000: 7095 bf3c 97cd 173e 146f a73d 79ef 4bbe
00000010: 1790 0cbd 50e4 b13c 9fd9 1bbc f4a7 063e
00000020: 7bb6 25bd 185a a6bd 3755 10be 7a8b db3d
00000030: c59a 573e 4c22 5b3e 4ebe 2dbe 22c9 c43c
00000040: cd0e 0ebe b467 96bd 5055 71be f4b6 0c3e
00000050: 6d35 153e 4f90 02be af5f c03d ee2d 2cbd
00000060: 4ac8 3c3e 1d20 773c 42f2 603d e497 95bb
00000070: ac51 b6bb e20a 43be 8157 0dbe 0db4 023e
00000080: 463a 233e 1369 493e 621c 2e3e d76e 4ebe
00000090: eeb4 d3bd 1831 983d bcd4 62be 8aa4 53bd
000000a0: 47cd 0b3e f520 efbd bbcb 9a3d 971f 2dbc
000000b0: 2700 d3bc 5a82 f6bc 990a f03c a79d 96bd
000000c0: 0478 383e e8e3 543e 6c42 60be f18e 0dbd
000000d0: b337 b6bc 1ac7 ebbc f8d9 7abd 5bba afbc
000000e0: e6d3 373d f60d d83c b8bf 393e 64a3 713c
000000f0: a69f 5c3d 981a 09bd c051 f5bc 2f7b 243e
00000100: e44b 073e afd3 afbb 8da8 34be 627d b93c
00000110: f393 fbbd 03e1 743d c06c 3c3e 6ba9 48be
00000120: b105 3bbe aab8 273e f984 dc3d 5a98 593e
00000130: 5afb 9abd 3590 06bd df2c 90bd 9e29 d0bd
00000140: 75c3 883c 330f 1f3e c2a0 713e f746 edbd
00000150: 6847 233e b6d6 32be e06a 38be 67cd 99bc
00000160: a0b7 6c3e efd8 f93d c138 29be 0872 563d
00000170: 85c2 393e be1d 5b3d 24d7 663d 3568 39bd
00000180: ed91 083e 51c0 1d3e 56bf 763d 5c82 ea3d
00000190: c8bd d7bd 59bf 36be b723 403e fc4a ba3d
000001a0: bbe7 0f3d 74c4 fb3d 2b5c 0bbe 568f c0bd
000001b0: aa6b 5d3d f5b2 38bc 5dad bbbd 8ff8 d7bc
000001c0: 0b47 9bbd 6df2 03be 2dc6 50be 8cbb e1bc
000001d0: f7ce 54be 933d ef3c 3253 3dbe 8235 8fbd
000001e0: f033 ebbd f161 a7bd 7046 6cbe 3817 85bb
000001f0: 46ca ffbd 726f 133e 35cc 47be 9e60 0f3e
00000200: ac76 493e da7f c93d 7ea3 8c3d 6256 2bbe
00000210: af65 e1bd dd5b 05be 3623 263d c284 7c3e
00000220: 147d 90bd 9500 90bd 431b 593d 5abb 57be
00000230: 55d7 9bba 77a3 abbd fbef 65bd 8da9 283d
00000240: 30e8 ba3d 395f 143e 40ae a23d e063 723e
00000250: ce81 1a3e 99f9 8bbc 2bdb dc3c e7a4 d8bc
00000260: 1312 9a3d 413d e93c 7209 fa3d 8eec 24be
00000270: 278f c9bd ffd0 1c3e 4a1f ec3d a2a4 633c
00000280: b45e ddbd 6667 ab3d fb4f a0bb 0430 b1bd
00000290: 0629 3ebe 1d06 49bd e16d afbd 6368 0a3e
000002a0: d92f 3dbd 461f 67bd 75f5 0f3e d549 af3c
000002b0: cf59 823d b7f9 073e 15ec c73c f2dc 9cbd
000002c0: d7f6 563e 546c 1abe 0dd5 173e bbe9 ec3c
000002d0: 9094 3f3d 07db 783d a2af c7bb 5fd9 f4bd
000002e0: 8b68 05be 914c 05be 3ea7 7c3e ac36 1c3e
000002f0: 16eb 0abd 5c00 913d c3f5 0c3d a703 543e
00000300: d040 483d 77aa c23d 33d8 17be d233 6b3d
00000310: 911a 44be 305e 5abe c2ef 3cba 1f57 1fbe
00000320: 22ba bd3b d8d8 123e c5eb b63d ea00 5ebe
00000330: a4df 9d3d a4ac 0a3e 6bec 53bd 2bb3 75be
00000340: 2849 8bbd 4f9f 853e 2e8b e2bd faba 00be
00000350: b6c1 123e ba46 2d3e 7cb1 223c 7683 753e
00000360: 8fba 13be 1a42 213e 9aa1 58be fc03 66bd
00000370: 5969 643e 369e 0ebe f334 3abe 93c7 ae3b
00000380: 874e 4e3e 906c 93bd 492f 65be f349 8a3e
00000390: 65ea 563e 82ef 1ebe 510b 9fbd 786a 823d
000003a0: de88 be3d 9fe8 3bbe dbe6 a4bd 3c67 cb3d
000003b0: 7e4d 073d b70b c73d 3a32 253e 3159 ae3d
000003c0: 2633 1c3e 912b ffbd f9f4 a43d f378 783c
000003d0: 88cf 0fbe 0005 bebd 3561 a2bd e774 2abe
000003e0: d46d 90bd f2e9 283e 876e 5fbe 9751 f23c
000003f0: 7914 b4bc a407 dfbc ddcd 5e3d 8f57 2dbe
0.023386687 0.1482452 0.08175483 -0.1991557 -0.034317102 0.021715313 -0.009512334 0.13150007
-0.04045723 -0.08122653 -0.14095007 0.107199624 0.21055134 0.21399802 -0.16967127 0.024021689
-0.13872834 -0.073439986 -0.235677 0.13741666 0.14571162 -0.12750362 0.0939325 -0.04203599
0.18435779 0.01508334 0.054918535 -0.004565226 -0.0055639353 -0.1904712 -0.13802911 0.12763996
0.15940198 0.19668989 0.17003015 -0.2015947 -0.10337244 0.07431239 -0.22151464 -0.05167059
0.13652526 -0.11676208 0.0755839 -0.010566614 -0.025756909 -0.030091453 0.029301928 -0.073542885
0.18014532 0.20790064 -0.21900338 -0.034560148 -0.022243356 -0.028781462 -0.061243027 -0.021451166
0.044879816 0.026373845 0.18139541 0.014748428 0.05386319 -0.033472627 -0.029946208 0.16062616
0.13212544 -0.005365811 -0.17642422 0.022642795 -0.122840784 0.0597849 0.1840086 -0.19595878
-0.1826389 0.16379037 0.1076755 0.21249524 -0.07567473 -0.03285237 -0.070398085 -0.10164188
0.016694764 0.15533142 0.2359648 -0.11585801 0.15945208 -0.17464718 -0.1800952 -0.018774701
0.23116922 0.1219958 -0.16525556 0.052354842 0.1814061 0.05349516 0.056357518 -0.045265395
0.13336916 0.15405394 0.060241066 0.11450645 -0.10534245 -0.17846431 0.18763624 0.090963334
0.035133105 0.1229333 -0.13609378 -0.09402339 0.054057755 -0.011273135 -0.09163926 -0.02636364
-0.0758191 -0.12885447 -0.20388098 -0.02755525 -0.20782076 0.029204166 -0.18488768 -0.06992628
-0.11484516 -0.08172978 -0.23073745 -0.004061606 -0.124897525 0.14397982 -0.19511493 0.140017
0.19674176 0.09838839 0.06867121 -0.16732171 -0.11005723 -0.13023324 0.040560924 0.24660018
-0.07055107 -0.07031361 0.053004514 -0.21067563 -0.0011889735 -0.08380788 -0.056137066 0.04117732
0.091263175 0.1448945 0.07943392 0.23670912 0.15088579 -0.01708679 0.026959976 -0.026445819
0.07522979 0.028471591 0.12208833 -0.16105863 -0.09841757 0.153141 0.115294054 0.013894232
-0.10809079 0.08369331 -0.004892347 -0.086517364 -0.18570337 -0.049078096 -0.085658796 0.13516383
-0.04618821 -0.05642631 0.14058478 0.02139751 0.06364786 0.13278852 0.024404565 -0.076593295
0.209926 -0.15080386 0.14827366 0.028920045 0.04677254 0.060755756 -0.006093935 -0.11955523
-0.13028161 -0.13017489 0.24673173 0.1525523 -0.0339156 0.07080147 0.034414064 0.20704518
0.048889935 0.0950517 -0.14828567 0.057422467 -0.1915076 -0.21324992 -0.00072073576 -0.15560578
0.005790011 0.14340532 0.08931688 -0.21680036 0.07708672 0.1354242 -0.051739138 -0.23994128
-0.06801063 0.26098105 -0.11061703 -0.12571326 0.14331707 0.16921511 0.009930011 0.2397593
-0.14426635 0.15747872 -0.21155396 -0.056156144 0.22305812 -0.1392754 -0.18184261 0.0053338497
0.20147143 -0.07198441 -0.22381319 0.27009544 0.20987852 -0.15521052 -0.0776583 0.063679636
0.09303449 -0.18350457 -0.08051845 0.099318 0.033032887 0.09719031 0.16132441 0.08513106
0.15253887 -0.124594815 0.08054537 0.015165555 -0.1404401 -0.092782974 -0.07928697 -0.16646157
-0.07052198 0.16495493 -0.21819507 0.02957992 -0.021982418 -0.027225323 0.054395545 -0.16927932

fc2.weight f4 [256, 512]
00000000: e253 e3bd 9c95 03bd f79d 4fbc d283 473d
00000010: ce4f 1d3c 6107 babd 6b6a 43bb 0926 8bbc
00000020: 1092 7abd 902e bcba a493 b13d d76d 64bd
00000030: fa69 ba3d 47a4 953d 0ab6 0abe a1bd 8e3d
00000040: 658f 9ebb 0cfe 413d dca8 173d bc88 cc3d
00000050: ac8a 2f3d 7dc2 a3bd 5508 993c d2e2 24bc
00000060: d6ae b83d a6df 37be 95cd 403d 82e1 ef3c
00000070: d57a 803d 1d31 573d 5156 a2bb 80b9 5cbd
00000080: 48d6 cfbc 03c1 543d 764d 833c 32e4 94bd
00000090: 4b68 7c3d c07a 38bd 6c06 b9bd 266d fbbd
000000a0: e3bb 513d 686f 0cbe a065 363d 14d9 663d
000000b0: c920 c0be bdd4 c53c 890f 5b3c 16ec 733b
000000c0: 2ba9 90bd 9260 b63c 3bdb 523d 2cfb 5bbc
000000d0: 7255 babd 6d89 f5bb 44f9 ae3d e06f 673c
000000e0: f43d 4e3d ba5e 123c e8e7 f2bd 5640 fcbc
000000f0: 5fc1 f33c 3578 5fbd e216 0abe 4dd5 373b
00000100: f442 1f3e fe7b b43c 6ddb 9b3d 3afb 15be
00000110: 15dd 72bd f0a6 cb3c 97da c33b f27f 8d3b
00000120: 1740 ce3d 6893 c0bd b448 893d b3c2 343d
00000130: 50ef 433d 4ee4 863d e21f c73d e612 55be
00000140: 935e 2d3c 4f45 e0bd a9ee 993d 0d05 a83d
00000150: 44c6 1fbc 166b 53bc 4dd8 43be bb59 d73d
00000160: cca1 d8bd cdd0 5dbc 9972 3e3d ac51 843c
00000170: ab41 5b3d 76ed c23d eb27 b7bd 1d23 adbd
00000180: 345b 033d 163e fd3b ccfe ecbd 5dc6 463c
00000190: 6ad6 eebc 4d14 0f3d 3874 1ebd a2a8 b3bd
000001a0: fd36 39bd 9f81 bb39 80ed 8ebd 7c68 d43d
000001b0: 5c2c b0bc 4dfe 21bd a38d 76bd ea66 b4bc
000001c0: dbe6 2e3d b3ac 833d dc58 3c3d e203 e03c
000001d0: c9e4 103d 25a8 4e3d 2b05 04bc 5f79 99bd
000001e0: d004 813c 523c acbd 92b3 f33c bb96 97be
000001f0: b3e3 19be 9fb5 6dbc 96fe d4bc 8209 5d3c
00000200: e6aa 583d e25c 45bd d8d2 c63c 9d29 63bd
00000210: 8489 29bd 62e7 13be 14cf d83d 9330 debd
00000220: a015 a53d e0fe 81bc 5634 b7bd e14a aa3c
00000230: 027c 903d 19ad a13d 5134 033d c2bd 9c3d
00000240: b3cb 0ebe 5202 493d 6feb 4abd 9230 a9bd
00000250: b562 35be 3035 dabc b16c 15bd 36c2 4abc
00000260: a250 0fbd aacc 053d ef3c ac3c 2a0e a63b
00000270: 877e f93c 7718 78bb db53 f33d 563c 1cbd
00000280: 055c b2bd d212 a13d 8e04 d6bc 3df6 eb3d
00000290: 3bc4 04be a003 ccbc 760f 0ebe 1648 f03d
000002a0: 6253 9f3d 81bb 13bd e350 6f3d a3ef 9dbd
000002b0: ce1c 04bc 8f4b 4bbd 7e0f bdbd 5528 0abe
000002c0: 0513 cdbd bc91 49bc b25c 1abe 904d b1bd
000002d0: ef91 073b 6c61 84bd 95f1 8fbd d6fe fd3d
000002e0: f9f3 82be 41e5 203d 4f15 a23d e088 84bd
000002f0: 901f 17be 5c18 5bbd 72ee d23c 2322 873d
00000300: 0796 a43d 52a5 e2bb 7e32 33bd 03a7 fe3b
00000310: 1e0c c6bd 63a4 d5bd ff2a 563d 4c70 87bd
00000320: 81e0 2cbe 287d 183d de39 853d d006 543d
00000330: ef88 c1bd 92c9 3f3d 2257 403d 0f20 74bd
00000340: 0d99 adbd 2e6c 393b 1ead 75bc 267f 463d
00000350: c1bd 893b 845c 5bbc 77e5 9bbc 9bdc 7dbd
00000360: 078a b0bd d725 2c3d e10c 793d 0de8 a43c
00000370: c13f 87bd fe22 8cbc b5a2 c43c a943 12bd
00000380: 4ae5 8d3d 1d9d 92bc e591 293d 46da 1b3d
00000390: 015e 87bd d89b 41bd 5ade eabd ed0e 39be
000003a0: 9e9c b6bc 427d 07bc 54f3 80be 51c7 d13a
000003b0: d733 89bd f190 81be cc8a 87bd 4043 253d
000003c0: 6dec 10bd 03f4 cabd e71a 763d 29ce 33be
000003d0: eeea 123d 3ab8 69bb 3788 17bd 72ab 81bd
000003e0: 51bf 053a 0a46 2f3c e2b5 863b 568b 5dbd
000003f0: cfaa babc 80f2 adbd abe3 95bc 9b65 02bd
-0.11099984 -0.0321251 -0.012671939 0.048709698 0.009601546 -0.09083439 -0.0029818069 -0.01698591
-0.061174452 -0.0014357138 0.08670738 -0.055768814 0.09102245 0.07306724 -0.13546005 0.069697626
-0.0048388713 0.04736142 0.03702627 0.099870175 0.042856857 -0.0799608 0.01868073 -0.010063844
0.09017722 -0.17956409 0.04707106 0.029282335 0.06273428 0.052537072 -0.0049541374 -0.053887844
-0.025370732 0.051941883 0.016028147 -0.07270087 0.0616229 -0.04503894 -0.09034428 -0.12276678
0.051204573 -0.13714373 0.04453051 0.056359366 -0.37525013 0.024149293 0.013370403 0.0037219576
-0.07063516 0.022262845 0.051478606 -0.013426583 -0.09098329 -0.007493189 0.085436374 0.014125794
0.05035205 0.008933717 -0.11860639 -0.030792397 0.029755292 -0.054557998 -0.13485292 0.002805072
0.15552884 0.02203178 0.076102115 -0.14646617 -0.05929287 0.024859875 0.0059769857 0.004318231
0.10070818 -0.094031155 0.0670332 0.044130992 0.047835648 0.065865144 0.09722878 -0.2080799
0.01058163 -0.109507196 0.07516224 0.08204088 -0.00975186 -0.012903949 -0.19125481 0.105151616
-0.10577735 -0.0135385515 0.046496008 0.016152225 0.053529423 0.09517948 -0.089431606 -0.08453963
0.0320694 0.0077283485 -0.11572036 0.012132254 -0.029154975 0.03493147 -0.038685054 -0.087723985
-0.045218457 0.00035763995 -0.06978893 0.10371491 -0.021505527 -0.03954916 -0.06019367 -0.02202173
0.04270063 0.06429424 0.04598318 0.027345601 0.035374437 0.050453324 -0.008057873 -0.07493853
0.015749365 -0.08409943 0.029748712 -0.29607186 -0.15028267 -0.014508634 -0.026000302 0.013491036
0.052897356 -0.048184283 0.02427046 -0.055459607 -0.04139091 -0.14443734 0.10586372 -0.108491085
0.08060765 -0.015868604 -0.08945529 0.020787658 0.070549026 0.07894344 0.032032315 0.07653381
-0.13944893 0.04907448 -0.049540933 -0.08261217 -0.17713435 -0.02663669 -0.03648061 -0.012375405
-0.034989007 0.032665886 0.02102515 0.0050676065 0.03045584 -0.003785638 0.118812285 -0.03814348
-0.087089576 0.07864918 -0.026125219 0.115215756 -0.12965481 -0.024904072 -0.13873085 0.11732499
0.07779576 -0.03606749 0.05842675 -0.07711723 -0.008063508 -0.049632605 -0.092314705 -0.13491948
-0.10013393 -0.012302812 -0.15074423 -0.08657372 0.0020686348 -0.06463894 -0.070285 0.12402122
-0.2557676 0.039281134 0.079142205 -0.06471419 -0.14758134 -0.053490028 0.025748465 0.06598308
0.08036428 -0.0069166804 -0.043749325 0.007771374 -0.0967028 -0.10431745 0.052287098 -0.06613216
-0.16882516 0.037228733 0.06505178 0.05176431 -0.09449946 0.04682309 0.046958096 -0.059600886
-0.08476458 0.002829324 -0.014994888 0.048461102 0.0042035286 -0.013388757 -0.019030316 -0.061977964
-0.086200766 0.042028274 0.060803298 0.020130182 -0.06603957 -0.01710653 0.024003366 -0.035709057
0.06928499 -0.017897183 0.0413989 0.03804996 -0.06609727 -0.047267765 -0.114681914 -0.180721
-0.022291478 -0.00826961 -0.25185645 0.0016004835 -0.06699341 -0.25305894 -0.0661827 0.040347338
-0.035381723 -0.09909823 0.06008425 -0.17559113 0.035868578 -0.0035662786 -0.03699514 -0.06331529
0.0005102056 0.010697851 0.0041110376 -0.05408796 -0.022786526 -0.08493519 -0.018297037 -0.03183518

fc2.bias f4 [256]
00000000: 496e 243d c276 823d 1ef7 8dbd 0549 a93c
00000010: e89d 993d 1ea2 2fbd 2dbc 403c 8370 92bc
00000020: 7eb4 cf3d 93f5 c93d 4717 8abd de2d 2d3d
00000030: 9322 843d 3ab0 db3c 7e14 9d3d 5c99 7f3c
00000040: bf69 3c3d ccad a1bd 6511 6d3d b154 10bc
00000050: ba5a 9c3d 736c f9bc 97fe a1bd 9d4a 0fbc
00000060: 581f d93c 4659 8f3d 36a7 f43b f98a 42bd
00000070: 7dc4 1fbd 46a4 903b aa2b d13b a8ed 7b3d
00000080: 9af8 33bc 210f 0e3d 2563 ad3d 2221 013d
00000090: 36a0 af3d f171 713d e02a a23d aa3a a73d
000000a0: e0f4 873d 9836 6c3c 3383 d2bb a3e5 fabb
000000b0: 51df 383c 6838 ad3c 63f5 993c baa1 803d
000000c0: 3c69 783d 612a 343c 2785 653b 52e4 5d3c
000000d0: 4b89 9fbd 0eea cf3c 433a cf3d 96cf 8bbd
000000e0: aedf eebc 3cd4 65bd ebc9 ce3b 0c2b 2a3c
000000f0: fc5f 96bd b9c6 b6bc b2cd 50bd 4ea7 173d
00000100: 5e7e c63d 7eed 56bc 87e6 683d f219 28bd
00000110: 236d 963c 9872 a43b bd92 1f3b 2bac c8bc
00000120: 7ef2 773d 73b2 a5bc 8f51 783d b147 8d3b
00000130: a3e8 46bd ba05 ac3d fc33 703d fc5c d33d
00000140: ec7d f6bc 9548 1cbd 292c 9abc f346 583d
00000150: 223a 8c3d a009 853d 87a1 653d 8bdd cb3d
00000160: 9b31 babc eccc 773d e03e 473d fa8d e23c
00000170: 9f72 c13c cdb7 983c 56dd c63d f0bf 923c
00000180: adce 563c bed0 ad3c b583 6a3c 00b6 633d
00000190: 0b28 3c3d d5ed a73c eb05 00bb 0090 87bd
000001a0: c818 b23d a7a4 f13c 0b57 a03d 12dd f53b
000001b0: b806 d03c ec55 17bd 7b2b 1ebd 1a09 8a3d
000001c0: 9bd8 103c 09b2 4d3d e421 c53d 1c6b adbb
000001d0: 87ac 5f3d 56ab b13b 76da 7e3d 2e23 b73b
000001e0: ee04 023d 5990 553c a337 2dbd 3451 a73d
000001f0: f9e2 3c3d 5a99 f7ba 0ea6 2c3d fe2b afbb
00000200: 95cf 403d d57e 21bd e520 0f3d db4d 7b3d
00000210: cd63 3b3d 5333 0f3c 3261 a73c d5f2 0c3c
00000220: add0 50bd 80da 0f3e 0263 32bc f16d 903b
00000230: 19e0 f9bb 95da d13d b2f6 83bc 507f 043d
00000240: b651 2ebd 8180 833d 19e5 b1bd 3b44 4ebd
00000250: 6f1c d9bb fe22 903c 9b73 943c 474c 2abd
00000260: d8ec 0eba facc 833d d7bf b4bc fd2f 7b3d
00000270: c2b3 a4bd 39f5 43bd 95c7 bd3d e8e3 303d
00000280: 87c4 613c 3b01 4dbc 9cf1 cf3c a63c 823c
00000290: d854 5f3d e26a 9b3b c56d dd3c 006f 64bd
000002a0: bc0b 06bd cd24 87bd 030a 6d3b 99cc cbbc
000002b0: 2832 2ebd 538e 5a3d 0810 413d b918 84ba
000002c0: b26f 553c 8c88 943c f3c0 853d 9e55 a73d
000002d0: 7a42 35bd 7f3d ae3d f421 873d c679 17bd
000002e0: 1484 c1bc e2f7 073d 784c 7c3d f2e9 2a3d
000002f0: 3d22 803d fadb 393d 0611 f73b 6859 f33b
00000300: 676e 743d 7dd5 823d d910 bc3c c24e 9c3d
00000310: 2b31 113d da14 bf3d 63cc 1d3d 00c8 c13c
00000320: 3b0b 38bc 542b 5cbd 7085 5c3d c32a 823c
00000330: 3086 e13c d4a2 c03a 4289 84bd e9e3 14bd
00000340: 8834 39bb f7af 823d db16 05bd dee5 913d
00000350: 7bff a93c 761d 07bd 97e0 523d 03bd 8e3b
00000360: ae52 46bc 5a66 e73b aa66 34bd bddd 2f3d
00000370: 0d51 d83b 3f78 b03d 2a9b 113c bacf 8c3d
00000380: 80dc 5b3d 19a5 843d 219e b1bc 4d4f 89bd
00000390: 09d2 873d 7780 bf3d a145 8f3c 5ff2 a93c
000003a0: 9643 ddbc ac05 723c 5798 123d e6ea 4b3d
000003b0: e96e 18bc 7edb 553d 8466 9e3d c603 1b3d
000003c0: 018b 733d 9741 7b3d ddc7 883d b88e 133d
000003d0: c7fa 0b3d 7732 0f3d 112d 31bc 9264 123d
000003e0: f022 aa3d d36d 6c3d 641d 76bd fcca 81bc
000003f0: 5eb9 833d e89d 1c3d 2e14 683d 3c58 bf3c
0.04014424 0.063703075 -0.069318995 0.020664701 0.07500821 -0.042879216 0.011763615 -0.017875915
0.10141848 0.09861293 -0.06742721 0.04228007 0.06451907 0.02681743 0.07669924 0.015600529
0.045999285 -0.07894477 0.057877917 -0.0088092545 0.07634492 -0.03044722 -0.07909887 -0.008745817
0.026504204 0.069994494 0.007466222 -0.047495816 -0.039005745 0.004414114 0.006383379 0.061505944
-0.010984564 0.034682397 0.08466176 0.03152574 0.0857548 0.058946554 0.07918334 0.08165486
0.06638503 0.014417313 -0.0064243316 -0.0076567694 0.0112837115 0.02114506 0.018793767 0.06280847
0.060647234 0.010996432 0.0035021992 0.013543205 -0.077898584 0.02538016 0.101185344 -0.06826703
-0.029159393 -0.056110606 0.0063106916 0.01038624 -0.07342526 -0.022311555 -0.050977416 0.03702479
0.096920714 -0.013118146 0.056860473 -0.04104037 0.018362587 0.0050185435 0.0024348937 -0.024496159
0.060533993 -0.020226693 0.060624655 0.004311525 -0.048561703 0.0839953 0.058643326 0.1032047
-0.030089341 -0.038155157 -0.018819885 0.052802037 0.068470255 0.064959764 0.056062248 0.09954365
-0.022728732 0.060498163 0.048643947 0.02765559 0.023614226 0.01864233 0.09710185 0.017913789
0.013110799 0.0212177 0.014313628 0.05559349 0.045936625 0.02049915 -0.0019534777 -0.06619263
0.08696133 0.029497458 0.07829102 0.0075031603 0.025393829 -0.036947176 -0.038615685 0.06740017
0.008840705 0.050218616 0.09625605 -0.0052923094 0.054607894 0.005422036 0.06222006 0.0055889105
0.031742983 0.013034903 -0.042289387 0.08169785 0.046114895 -0.0018890307 0.04215055 -0.0053458204
0.047072966 -0.039427597 0.03494348 0.061353546 0.045749474 0.008740264 0.020432089 0.008602818
-0.05098026 0.14048195 -0.010887863 0.0044076373 -0.0076255915 0.10246769 -0.016108844 0.032347977
-0.042558394 0.064209945 -0.08686275 -0.05035804 -0.006625704 0.01759481 0.018121531 -0.04157665
-0.00054521626 0.064355806 -0.022064133 0.061325062 -0.080420986 -0.047841284 0.09266583 0.0431861
0.013779766 -0.0125125 0.025383763 0.01589806 0.054524273 0.004742966 0.027029881 -0.05576992
-0.032726035 -0.06598816 0.0036169298 -0.024877833 -0.0425283 0.053358387 0.04713443 -0.0010078169
0.0130271185 0.018131517 0.06530943 0.08170627 -0.04425285 0.08507823 0.06598273 -0.036981367
-0.02362255 0.033195384 0.061596364 0.041727014 0.062565304 0.0453758 0.007539871 0.0074264295
0.0596756 0.06388376 0.022957252 0.07632209 0.03544728 0.09330149 0.038524996 0.023654938
-0.011233146 -0.05375226 0.053838193 0.015889531 0.027529806 0.0014696964 -0.06471492 -0.036350165
-0.002826007 0.06381219 -0.0324925 0.07123922 0.020751705 -0.03298708 0.051483717 0.004356028
-0.012104673 0.007061762 -0.04404322 0.042936075 0.006601459 0.08616685 0.008887092 0.06875558
0.053677082 0.064768024 -0.021681847 -0.067045785 0.06631858 0.093506746 0.017489256 0.020745454
-0.027009767 0.01477186 0.035789814 0.049784563 -0.009303787 0.052211277 0.07734397 0.037845396
0.059458736 0.06134185 0.06678746 0.03602478 0.034174707 0.034960236 -0.010813967 0.035740443
0.08307445 0.057721924 -0.060086623 -0.01584386 0.0643184 0.03823653 0.05665987 0.023357503

fc3.weight f4 [2, 256]
00000000: 928b 4dbe a659 3abe 3abd 413d e18e 253d
00000010: 2cb7 4f3b 8849 9a3d 13b4 793d 6376 2bbd
00000020: 58bf 7cbd c474 adbe 83dc 3cbe 41de 05be
00000030: 6af7 19be 9b28 a53d c37d bbbd 013e d7bd
00000040: 2083 93bd 72c3 af3b 29ae 5bbc 8afb 9a3d
00000050: 3335 46be f204 f1bd 6a29 c53d 1696 a23d
00000060: 4ce2 26be c4fb 8bbe 0ad9 e13c 592e 773d
00000070: 6757 b83d 22ac af3c d63d 52be e782 993d
00000080: 69cf a2bd e3cc 7c3d a24c 45bd a1ea 58bd
00000090: 288d 25bc 85b7 c0bd 1c74 31be fd9d 67bb
000000a0: a287 c53d 0176 2bbe fcf8 1bbe 2ad0 babd
000000b0: 7bef 433d 588e a13d 8d7c bfbd f39e d6bc
000000c0: 5d8b 853d 7027 11be 4793 2bbe d50e 21bc
000000d0: 440a 63be 4488 e0bb b83a 98bd 4682 aabd
000000e0: 909d ccbb 5d8f 38bd 6441 11bc df5a 973d
000000f0: 2470 f03b f5ab 323d 94b4 823d 5e6e d0bd
00000100: c7aa 39be 1aa0 ef3d 4cf0 d3bd ed8d aabc
00000110: 9ab2 023e 2029 3fbd d4fb a9be 003e 68bd
00000120: dd6f 7dbd b62e b53d c35d 07be 9636 04bd
00000130: 0613 84bd 028c 3cbc 014d 13be f56a 1abe
00000140: 0e47 923d 1e0c 9abc 2b36 303d 5b4a 5cbd
00000150: 4623 873d 2f41 9cbe 8318 b3bd 1e3b 043d
00000160: a720 5a3d af8e 02be 20b9 30be 322d 5abe
00000170: 3f65 90bd 3834 8c3b 1f8e 2abd 0304 2abd
00000180: 1a1d 6e3d 2dd0 9b3d 0fbc a43d e290 8fbe
00000190: 58c1 0abe 0da7 ab3d b820 a93b 6d87 24be
000001a0: b78a 83bd fb36 9f3c 2c90 d63c 898c fdbd
000001b0: d71e ac3d e6f8 73bd 484f 92bd 2dd7 75be
000001c0: 162a 02be 158b 46be b453 72bd 35ca ab3d
000001d0: 4408 8ebe 4fbd 74be fe2d f93c 152d 3ebd
000001e0: 1e1e 65bd 3b7d 89be 0464 a83a 3c87 35bd
000001f0: 7af8 03be 2026 b53b 5f43 efbd 4067 f7bd
00000200: 9f32 90be 70b7 75be a070 6cbd 31ff 62be
00000210: ad9e bcbe b12b dd3d 4e7c 80be ce38 d03c
00000220: 6a4c a4bd b5b9 4cbd 6db2 883d faaf b6bd
00000230: 297b 22be a703 713c a32d 48be d580 1bbe
00000240: ac4a 53bd 01af c4bd 28b9 413d dff2 a03d
00000250: f0e1 b53d 5886 853d b517 47bd aff2 85bd
00000260: 7ecb cebd c70d b23d 8218 2fbd 48fd c5bc
00000270: 8fee 0abe 7262 ae3d d8d6 68bd f164 05be
00000280: df1a 063d db90 e5bc fa2a 5ebd 3741 5d3d
00000290: 10c7 5dbe 0a97 683d b70c 0cbe 9391 063b
000002a0: 498b 993d 1b91 d7bd 15f1 d0ba dbc8 483d
000002b0: 8234 e93d fa31 17bd 4110 aa3d 5a8a 573d
000002c0: 942d 70be 9dc9 83be d8d2 78be 3d84 9cbe
000002d0: 9c47 04bd 6ac0 5abd 8b33 acbc 6963 803d
000002e0: 88c7 c23d 63f5 ddbd 5e36 4abe 71d3 1dbe
000002f0: 33f2 28be e60d 23be 92b5 613d 6717 1ebe
00000300: f5a7 eebd ca6f a5be 83ae 01be 014e b53d
00000310: a16b b33d 44c3 063c bc43 fcbd 5ed4 46be
00000320: 5958 49be 873c 703c 18b0 bebd 6b8a b3bd
00000330: 4ea3 d3bd 89a6 af3d 714b 8abd 6e3a dfbb
00000340: ea0b cdbd 15ec 23be 24a4 afbd be7e 7bbc
00000350: 7a06 6bbe 6802 33bc f1eb 18be 7433 8bbe
00000360: 7bda 813d 636c d5bd 51d9 eebd e2a3 64be
00000370: 7932 b43c 6252 08bc c55e b23d be40 3cbe
00000380: f70e 13be cca9 48be b76f bb3a 0c55 653d
00000390: fcb7 0b3d 2041 95bc 32e9 3dbe 5f14 0abe
000003a0: 1fc7 0cbe a776 37be ab13 b03d 1f53 27bd
000003b0: 4744 23be dc71 bdbd d5be 03be 96c7 c5bd
000003c0: 082b 19be ff5b aabe 88a3 41bd 5091 723b
000003d0: 4dea 87bd e028 11be a82c 15bd eadf febd
000003e0: 5c90 34bc 13ef db3b 4fcd 853d 9199 6ebe
000003f0: 52e3 11be e2f6 943d 6103 8dbe 2bdb 85be
-0.20072773 -0.1819826 0.0472996 0.040419463 0.0031694872 0.07533556 0.060962748 -0.04186095
-0.061705917 -0.33878148 -0.18443494 -0.13073064 -0.15035787 0.080643855 -0.091548465 -0.10509873
-0.072027445 0.005363875 -0.013408222 0.075675085 -0.19356231 -0.11768521 0.0962704 0.07938783
-0.16297263 -0.2734052 0.027569313 0.060346935 0.09001046 0.021444384 -0.20531401 0.07495671
-0.079497166 0.061718833 -0.048168786 -0.052958135 -0.010104455 -0.094100036 -0.17329448 -0.003534197
0.096450105 -0.16744234 -0.15231699 -0.091217354 0.04783581 0.07888478 -0.09349928 -0.02619884
0.06520722 -0.141752 -0.167554 -0.009830196 -0.22171885 -0.0068521816 -0.07433075 -0.08325629
-0.006244369 -0.045058597 -0.008865688 0.07390379 0.007337587 0.043621022 0.06382099 -0.10177301
-0.18131553 0.11700459 -0.10348567 -0.020819629 0.12763444 -0.04667008 -0.33199942 -0.056699753
-0.06187426 0.088468 -0.13219361 -0.03227862 -0.06448941 -0.01150799 -0.14384843 -0.15079863
0.07142459 -0.018804606 0.04302041 -0.05378185 0.06598525 -0.3051848 -0.087449096 0.03228294
0.053253796 -0.12749742 -0.1725812 -0.21306303 -0.07050561 0.004278686 -0.041639443 -0.041507732
0.058133222 0.07608066 0.08043682 -0.28040224 -0.13550317 0.08381472 0.005161371 -0.16067286
-0.06422942 0.019435396 0.026191793 -0.123803206 0.0840432 -0.05956354 -0.07144028 -0.24007864
-0.12711367 -0.19388993 -0.059161857 0.08388177 -0.2774068 -0.2390034 0.030417439 -0.046429712
-0.055936925 -0.26853356 0.001284719 -0.044318423 -0.12887755 0.0055282265 -0.11682772 -0.1208024
-0.2816362 -0.23995757 -0.057724595 -0.2216766 -0.3683981 0.10799349 -0.25094837 0.025417712
-0.08022387 -0.04998179 0.06674657 -0.089202836 -0.15867294 0.014710343 -0.19548659 -0.15185864
-0.051584885 -0.09603692 0.04729572 0.07858824 0.08880985 0.06519765 -0.048606593 -0.06540429
-0.10097407 0.08694034 -0.04274798 -0.024168625 -0.13567565 0.08514871 -0.056845516 -0.13026787
0.03274047 -0.028023174 -0.054240204 0.05401727 -0.21657968 0.056784667 -0.13676725 0.0020533546
0.0749727 -0.105257235 -0.0015940989 0.049019676 0.11386968 -0.036912896 0.083038814 0.052622177
-0.23454887 -0.25739756 -0.2429918 -0.3056964 -0.032294855 -0.053406157 -0.021020671 0.06268961
0.09510714 -0.108378194 -0.19747302 -0.1541269 -0.16498642 -0.1592327 0.0551048 -0.15438615
-0.11653129 -0.3231185 -0.12664227 0.08852769 0.08760763 0.008225266 -0.12317607 -0.19416949
-0.19662608 0.014662868 -0.09310931 -0.087666355 -0.10333882 0.08576686 -0.067526706 -0.0068123853
-0.10012038 -0.16008027 -0.08576229 -0.015350042 -0.2295169 -0.010925867 -0.14933755 -0.27187693
0.063405 -0.10421064 -0.116625436 -0.22328141 0.021996723 -0.008320423 0.08709482 -0.18384072
-0.14361177 -0.19596022 0.0014300261 0.05598931 0.034111008 -0.01821953 -0.18545988 -0.13484333
-0.13747834 -0.17916356 0.08597501 -0.040850755 -0.15944014 -0.092502326 -0.12865765 -0.096572086
-0.14957821 -0.33273312 -0.047275096 0.0037012883 -0.06636486 -0.14175749 -0.03641954 -0.12445052
-0.011020746 0.0067118495 0.065333 -0.23300768 -0.14246872 0.07273652 -0.2754164 -0.26143774

fc3.bias f4 [2]
00000000: 1b82 2a3d a0ff 033d
0.041627984 0.032226205
